trained_models/emotionnet_nano(34%, no rotation).pt (torch, 577715 bytes, 44 tensors)

layer1.weight f4 [11, 1, 3, 3]
00000000: f055 4abe 9cbf a7bd 94e6 d03e b265 37bc
00000010: 3649 093d b1aa 75be 0bde 823e 439b 10be
00000020: 5ed6 6cbc 127d 6dbe b7a7 bebb 316d 663e
00000030: 937b 543e 9b8e 85be 9a74 213e e5f4 a6bd
00000040: eb7d 3abd 4c6b 933e dbb4 afbe ba0e 64bc
00000050: 969c 8dbe 64c8 2f3d 0ae5 963e a4ff 9bbe
00000060: f1d3 9f3d aad5 bf3e cb82 50be 36d1 39be
00000070: 64a1 5fbd 6052 cb3e 29c0 413e 7ee7 27be
00000080: 28f9 b23e 4e5d 92be 61c7 553e cb0c e4bd
00000090: 0827 4b3e 98e3 bd3e 279c 643e 453f a7be
000000a0: c482 afbc 7da8 a5be 1bb3 1dbe 9d33 59be
000000b0: e93f 5bbd 4d38 b7be 3680 c03d 3bea d1be
000000c0: 2448 823e f252 503d 8d49 ec3d 2a21 45bd
000000d0: 30c8 9fbc 26cb 333e 526f 39be e7ef 843e
000000e0: 1a53 7f3e 1693 ad3d 5104 623d 6705 8d3e
000000f0: 6b84 a53d de4f 703e c0fc 1ebe dae3 d5bd
00000100: 5f0d 4e3e 6280 d8bd c7f1 5ebe c06a 943e
00000110: ac3b 3cbd 7157 23be c0ab 263e 1756 4b3d
00000120: 231b 4c3e 0daf d4bd 6a22 823e c350 afbd
00000130: 1b52 56be 87df 99bb e8ec 893e 304c 58be
00000140: 5408 f4bd c924 943d eb4d a53e b9fa 1d3e
00000150: f99a 24be b869 a33e 1e38 493e bd8f 29be
00000160: 1f65 94be ebcc 9bbe a75a 493c 3b60 a5be
00000170: edba a23e 8f2f 39bd 0cc4 3bbe 7f36 043e
00000180: 9fca 8b3e 4547 85be daaf 82be
-0.19759345 -0.081908435 0.40800917 -0.01119368 0.033517085 -0.23990895 0.2556003 -0.14121728
-0.014455406 -0.23192242 -0.005818333 0.2250259 0.20750265 -0.26085362 0.15767136 -0.08152179
-0.04553024 0.287928 -0.3431767 -0.013919527 -0.27658528 0.042915717 0.29471618 -0.30468476
0.078040965 0.374677 -0.20362394 -0.18146214 -0.054597273 0.39711285 0.1892096 -0.16396901
0.34955716 -0.2858681 0.20876838 -0.111352526 0.19839108 0.37087703 0.22325192 -0.32665458
-0.021424659 -0.3235511 -0.15400355 -0.21211095 -0.053527746 -0.35785142 0.09399454 -0.40999016
0.25445664 0.050860353 0.11537466 -0.04812733 -0.019504637 0.17557964 -0.18108872 0.2596428
0.24934044 0.0847532 0.055179898 0.27543184 0.08081897 0.23467967 -0.15526104 -0.1044385
0.20122288 -0.10571362 -0.21771918 0.28987694 -0.045955345 -0.15951325 0.16276455 0.04964265
0.19932227 -0.10384951 0.2541688 -0.08560326 -0.20929758 -0.004695836 0.26938558 -0.21122813
-0.11915651 0.07233579 0.3228601 0.15427674 -0.16074742 0.31916595 0.19650313 -0.16558738
-0.289834 -0.30429778 0.01228968 -0.3229998 0.31783238 -0.04521137 -0.18336505 0.12911414
0.27303025 -0.26030937 -0.2552479

layer1.bias f4 [11]
00000000: 5a8f 82bc c0a6 babd 870f a73e e90c 2bbd
00000010: 2b6e f9bd c4ca 393e ca01 fe3d 2dde 9abc
00000020: a279 0dbd 8393 26be b272 513e
-0.015937496 -0.09113836 0.32629034 -0.04176036 -0.12179216 0.18143755 0.12402685 -0.01890477
-0.034539826 -0.16267209 0.20453909

layer2.weight f4 [9, 11, 3, 3]
00000000: e4d3 2dbe 5fcd 77be 0373 6fbc 37fa 03be
00000010: 34dd 17be 2424 1bbe 6eed 0fbe 1c39 9cbe
00000020: 2763 a2be 3f38 903d a71e 84ba 95fd 9fbd
00000030: a953 283e 0a26 0abe 6c10 7ebd bb50 133e
00000040: 782c 853d 35d1 adbd e59f 193d e765 ebbd
00000050: 12ee 9f3b d268 88bd ff3a d5bd 4c0f 4f3d
00000060: 17f0 5c3b 9a6a c8bd 2d51 443d 7329 98bb
00000070: 400e 743d 6424 813c 5334 c93d 62b0 5b3d
00000080: d36e 1cbe 1bb2 033e cfce bb3d d764 c5bd
00000090: 218a f0bd aebd f4bd c662 b83c bb17 d6be
000000a0: 9803 b6be 0403 c2bd dfc7 46be 878b 73be
000000b0: f619 88be 0c0c 0ebe c14d dcbd 64f3 9d3c
000000c0: f947 49bd 5681 dc3c a857 04be ec97 3f3c
000000d0: 26b5 2bba 080e b93d 4a2e 883d 5d53 803d
000000e0: 97a3 bfbb cd13 1b3e ac75 d83d 0825 6fbc
000000f0: c521 cdbc 6c6c f43d c86c 583d c4e8 b2bd
00000100: 578f 2abd 017a a7be b7bf 823d 7aa4 753d
00000110: ef8f 4dbe 41ae 273c 468e 883d 1b7e 30be
00000120: 91fd adbc 849a 4dbd 7907 f539 d57c 90bd
00000130: 4764 2fbe f542 ddbd 5d2c c2bd eee8 18be
00000140: 8b66 c3bd 03b4 00bd 71c9 523c e301 d1bb
00000150: d6f8 0bbe 447f 14be 3c17 61be 7a8d 983c
00000160: ee44 cdbd 78b7 8ebe dcf1 81bd 5430 97bb
00000170: 29e8 9bbd 1d87 6bbd d09f 063d a0da 643c
00000180: 70db 723c a6da bebb 85d2 aebd 4a40 643e
00000190: 16e0 143d 95dc e93d 80f7 7f3d 5b1c 1a3e
000001a0: 0af5 053d 1bd2 293e a185 403e b250 e53d
000001b0: 29a3 dfbd 4165 f83d 9cfc 81bc 8b0b e8bd
000001c0: 1bbc e53d 6824 623d c30c bdbd 2924 573d
000001d0: 4298 153c 2eee 433d ba4d 20be e645 753d
000001e0: fb34 2abe c695 11be 3a80 d63d 61e3 9bbd
000001f0: 511a 16bc f5d0 cebc 3e71 bcbd 48df efbd
00000200: f223 61bd a230 58be 294b 48bd 99a5 a73d
00000210: 23c0 45be 746c c83c ad50 a1bd 596a dbbd
00000220: 2b5c b63c c5f4 5c3b cc87 8bbb 2d8c eb3d
00000230: 1b18 da3d f2fa 493d d93a 5dbd fa0a 1abd
00000240: 02ee e9bd 66b5 923d 5c0f 7c3d b869 a43d
00000250: 7687 b9bd 5fd6 ddbc 3bc1 fa3c f225 cabd
00000260: b1c7 fcbc dec8 b63b 609a fc3b 2591 29bc
00000270: 6a9d 3e3d f33a fa3c 154d d6bd 9993 cabd
00000280: 6da9 1d3d 40a4 943d 32f4 953d b656 ecbc
00000290: b457 733e 7e86 98bd b4ed 1fbb 7bb2 293e
000002a0: d0dd 53be 4874 713d 160c 973e c3e1 e73c
000002b0: 1e0c cdba 2b13 573c ab27 273e fb3f 2f3e
000002c0: 854e ccbd 9b3f 6e3e 97e0 8c3d 68c6 553d
000002d0: 4b32 7e3d 7913 98bd 8560 213d 4132 983d
000002e0: 09ba 59bd b27f 25bc 8be4 fdbd bab9 91bc
000002f0: 8ba3 803d 4ee0 87bb cc00 c5bd 16d4 0fbd
00000300: 993c c23d 62a3 ed3c 2ef2 d23c e12d 033e
00000310: 898e 1b3e cccb bd3d 622a 61bd f184 92be
00000320: 83ea e2bc d9db 4fbe b041 1bbe 726b f4bd
00000330: fe68 b4bd b8f4 6cbe 48ff 9abe 812c bebc
00000340: 83d5 bdbc abf2 c1bd 50c2 293e 0851 923c
00000350: 4ecc 85bd 5f0a 493e 6122 a33d f8c2 40bc
00000360: 8cb1 0f3e 1e1a babb 7982 503e 5fc6 a5bc
00000370: 39e6 20bd ab7b 173e c007 47bd fcb4 b5bc
00000380: 58f0 d53c 0bc8 a0bd 0e89 b43a a575 4a3c
00000390: 0d23 753d fa3e 15bd 8f87 32bd 3b3e 733e
000003a0: dd1e 0b3e b812 cbbd 8406 89be 0369 c3bd
000003b0: 223c 8cbd 667f b2be 5cc6 6fbe 168b 41be
000003c0: 99c6 b4be 0c52 c5be d14a 85be 3efa fd3d
000003d0: 9824 d43d 933d 1b3e 5208 613d 0524 1f3e
000003e0: 7941 483d 2b7b 25bb cd62 a93d 588e e53d
000003f0: e447 693b edef e73c 7c6f 3bbd 6688 bebd
-0.16975361 -0.24199437 -0.014614823 -0.12888418 -0.14830476 -0.15150505 -0.14055416 -0.3051232
-0.31716272 0.07041978 -0.0010079936 -0.07812039 0.16438164 -0.13491073 -0.06202738 0.14386265
0.06502622 -0.08487169 0.037506003 -0.11494046 0.004880675 -0.06660618 -0.10411643 0.050551698
0.003371244 -0.09785958 0.047928978 -0.004643613 0.059583902 0.015764423 0.09824433 0.05363501
-0.15276651 0.1286091 0.09170305 -0.09638374 -0.11745096 -0.11950241 0.022508036 -0.4181498
-0.35549617 -0.094732314 -0.19412182 -0.23783694 -0.26582307 -0.13871783 -0.10757018 0.019281097
-0.049140904 0.02691714 -0.12924063 0.011693936 -0.00065501255 0.090358794 0.06649454 0.062659
-0.005848359 0.15144272 0.10569319 -0.014596231 -0.025040517 0.11934742 0.052838117 -0.08735803
-0.041640606 -0.3271027 0.06384223 0.05997131 -0.20074438 0.010234416 0.066677615 -0.17235605
-0.021239074 -0.050196186 0.0004673561 -0.0705506 -0.17128097 -0.10803787 -0.09481118 -0.14932606
-0.09541043 -0.031421673 0.01286541 -0.0063783987 -0.13669142 -0.14501673 -0.2198152 0.018622149
-0.10022913 -0.2787435 -0.06344959 -0.0046139155 -0.076126404 -0.0575019 0.032867253 0.01396814
0.014822826 -0.005824405 -0.08536247 0.2229015 0.036346518 0.11419026 0.062491894 0.15049879
0.03270439 0.16584055 0.18800975 0.11197032 -0.10919792 0.12128688 -0.015867524 -0.11330327
0.11217519 0.0552105 -0.0923095 0.05252472 0.009130539 0.047834568 -0.1565465 0.059881113
-0.16621773 -0.1421729 0.10473676 -0.076117285 -0.009161548 -0.025246123 -0.09201287 -0.117125094
-0.05496592 -0.21112302 -0.048899803 0.08185882 -0.19311576 0.024465777 -0.07876716 -0.107136436
0.022260746 0.003371523 -0.0042581316 0.11501346 0.10649129 0.049311586 -0.0540112 -0.037608124
-0.114223495 0.07163505 0.061538085 0.08027977 -0.0905904 -0.02707976 0.030609718 -0.09870519
-0.030856939 0.0055781445 0.0077088326 -0.010349547 0.04653684 0.030545687 -0.10463921 -0.09891433
0.038491655 0.07257891 0.07321967 -0.02884994 0.23763925 -0.07447527 -0.0024403157 0.16571991
-0.20690084 0.058948785 0.29501408 0.028305894 -0.001564387 0.013127129 0.16323726 0.1711425
-0.09975914 0.23266451 0.068787746 0.052191168 0.06205968 -0.07425589 0.03939869 0.0743146
-0.053155933 -0.010101246 -0.12397107 -0.017788757 0.06281193 -0.0041466122 -0.096192926 -0.03511437
0.09484214 0.029008571 0.025750246 0.1281047 0.15191092 0.09267387 -0.05497206 -0.2861705
-0.027699715 -0.20298709 -0.15161777 -0.11934556 -0.08809088 -0.23140228 -0.3027289 -0.02321458
-0.0231731 -0.09470113 0.1657803 0.017860904 -0.06533109 0.19632863 0.07965542 -0.011765234
0.14032573 -0.005679383 0.20362271 -0.020236192 -0.039282057 0.1479327 -0.048591375 -0.022181027
0.026115581 -0.07850655 0.0013773756 0.01235715 0.05984788 -0.036437012 -0.04358631 0.23754208
0.13585992 -0.0991568 -0.26762784 -0.09541514 -0.06847407 -0.34862822 -0.23415512 -0.18900713
-0.35307768 -0.3853916 -0.26033643 0.124012455 0.10358542 0.15160207 0.054939575 0.15541084
0.048890565 -0.0025250416 0.08270798 0.112087905 0.0035595829 0.028312648 -0.045760617 -0.0930336

layer2.bias f4 [9]
00000000: 9723 a6bd d71d 963d 91dd 8c3b 65b8 64bd
00000010: e6e6 433d fd72 183d cdf5 75bd 496f 623c
00000020: c729 0abe
-0.08112257 0.0732991 0.0042988737 -0.055839915 0.047827624 0.037219036 -0.060048867 0.013820478
-0.134925

layer3.weight f4 [11, 9, 3, 3]
00000000: 756d 1b3c f98a 02be 4a2c 283d e21d 2cbd
00000010: 3e30 ad3a f3a4 a6bd 26ce fdbc 5126 9f3d
00000020: af85 82bd c9f3 81bd 1858 523d de60 423d
00000030: 8ebc e0bd a69c abbc f2c3 0cbd f283 d2bd
00000040: 3a0d 813d ee83 03bd 6fc4 783d e792 27be
00000050: c8ab c5bc c576 e63d e961 43ba dc1a 79bd
00000060: 70fd 0c3e a150 2dbd 0774 d5bd 1ccf 923d
00000070: db28 9ebd 13f6 8bbd d4dc 6cbc c263 f93c
00000080: d079 adbd 874a 553e dec0 8a3d 829a b43d
00000090: 7567 f03a 8f2a c73d 5d02 bebc e023 bcbd
000000a0: 674e a9bc 1ddc 0dbd 52cf b1bc 57b9 66bc
000000b0: 0bf6 87bd bae8 173a 7a5e 09be 7054 88bd
000000c0: 63d7 c23d b3b7 0cbe 91fb 53bd d703 fd3d
000000d0: 6a86 2f3d 51bd b4bd 29d2 58bd 029e 10be
000000e0: 4fc9 0b3d de3a 023e 7d26 b03c a325 b5bc
000000f0: c08b d53d 840b df3d ca92 25be 11e8 0fbc
00000100: 9e83 f83c c104 a33c 1649 3d3d 7abe b03d
00000110: 6b5d f33d bdd3 bb3c 73e1 aebd 791b d4bd
00000120: 7143 6f3d 3b07 093d e5fb 28bd 8e88 ee3c
00000130: 8ecd 773d dedb 5ebd d11e 8abc 5afe c1bd
00000140: 3b93 513d 3939 043d 1648 0abd d1d1 4dbd
00000150: c48a 913c d2b2 2fbc 5595 e1bd cad8 193c
00000160: ca72 08be fb86 18bd c940 a0bd bc82 313d
00000170: 172b 263d 2f2b 00be 7828 fb3c 4672 a5bd
00000180: c6e0 0b3d 2721 86bd d7dd b9bd bd85 dbbd
00000190: ccd2 a9bd 8f6d 06bd a2f3 d0bd 900c 15bd
000001a0: 701a 543b 4e35 cf3c 0a92 e7bd c5a6 68bd
000001b0: e43f 9bbd 09ab 6fbd cbf8 8ebd 5fa1 e5bd
000001c0: e6ff 97bc 93b2 88bd 5c6d 8e3c e0a4 813b
000001d0: 8f98 ebbd ce5f b4bd 90a2 c5bd 45f9 d6bb
000001e0: ebd8 7dbd 199a 24be eb92 15be 3dc9 18be
000001f0: 5722 ecbd fb73 c8bd 303e fbbd b77c b8bd
00000200: fb12 efbd 5b77 ccbd e427 febd c012 1bbc
00000210: ba1b 20bc f0c2 983d a7df f5bd 783a cfbc
00000220: 1b64 efbc 7fcc b93c ffd5 d03c f12f dfbd
00000230: d7a1 653d b1f6 fe3b 3f6c 3dbd 25ad ee3c
00000240: ad0c 833a a6a1 863d 9568 06be c529 25be
00000250: e6d2 e6bd ad33 75bd 52bd 8abd 729a b5bd
00000260: b32c dabc f2eb b9bd a2dc 303d f321 833d
00000270: 10f3 d5bc 6090 973b 6501 66bc cebb 93bd
00000280: 083e 5f3d 21fa ccbd 9f0d afbd a20c b6bc
00000290: 05c1 05be d47c a3bd eae2 eb3c d9cc 213d
000002a0: 415e 1ebc fada f03d 00fb b63b 9214 8a3d
000002b0: 077b c03c a1b8 14bd f750 77bc 8fce 483c
000002c0: 0e40 783a ea37 f7bd 0e5e 40be 9cbe 66bd
000002d0: 05fb d5bd 66e6 98bd b4d2 39be 46ce 193b
000002e0: 20d1 e3bd 448e 0bbe f421 b5bc 727c b4bc
000002f0: 770d a4bc ede2 4a3e 145a 97bb 530a ec3a
00000300: b95b 0a3d 8c89 bb3d 6c25 ab3d ca1f d7bd
00000310: e15a dabd bd2e 3bbe bd95 f2bc 9dbd 0d3d
00000320: f971 ffbd 1c28 af3d b864 3c3d 3bf2 ce3d
00000330: c3f8 d23d 3e3d 00bd 6363 093d 6fa1 efbc
00000340: fe02 bebd 01d2 0f3c dfef 64bd 755c 0ebd
00000350: 9b98 27be f4a8 593d f8d4 76bc 5c47 cbbd
00000360: 20a3 f9bc 9d57 be3d 0716 5dbd c840 e73d
00000370: d27f 19bd f39a 07be 9690 75bd 99f0 863b
00000380: f613 5ebd 7e8d 2a3e 0c5c 143d c2fb b23c
00000390: 5588 4a3e 1a19 433e 9046 6ebd 0037 e4bd
000003a0: 1d1c abbd acac 8abe 7356 e1bc 9df8 9b3d
000003b0: 0c4c cdbd 6051 973c 7d4c 14bd 0be0 9a3c
000003c0: 1918 283d 0025 3abd 37e4 b73d f458 97bd
000003d0: 657a 64bd 17ff 933d 4fe5 f5bd e5d4 ac3c
000003e0: c417 263e 18e7 8bbb 2c62 1e3d 5735 013e
000003f0: ecac a9bd 4778 ff3b 45ce 7c3c eb22 043d
0.009486546 -0.12748326 0.041057862 -0.042020686 0.001321323 -0.0813693 -0.030982088 0.0777098
-0.06373154 -0.063453265 0.051353544 0.04745566 -0.10973464 -0.02094872 -0.034366556 -0.10279073
0.06301351 -0.03210824 0.06073421 -0.16364633 -0.024129763 0.11253122 -0.00074532494 -0.06081663
0.13768554 -0.04231322 -0.10422521 0.07168409 -0.07722636 -0.06834044 -0.014456946 0.030443076
-0.084704995 0.20829211 0.06775068 0.088185325 0.001834138 0.09724914 -0.023194486 -0.0918653
-0.020667268 -0.034633745 -0.021705303 -0.014082274 -0.06638726 0.0005794872 -0.13414946 -0.0665673
0.09513738 -0.1374195 -0.051753584 0.12354248 0.042852797 -0.08825172 -0.0529348 -0.14122775
0.03412753 0.12717769 0.021502728 -0.022112673 0.10427046 0.10890868 -0.16169277 -0.008783356
0.030336197 0.019899728 0.04621228 0.086300805 0.118830524 0.022928113 -0.08539095 -0.103568025
0.058413927 0.03345416 -0.04125585 0.029117849 0.060498767 -0.0544089 -0.016860398 -0.09472342
0.0511658 0.032281134 -0.033760153 -0.050248925 0.017766364 -0.010723786 -0.11014811 0.009390065
-0.13325039 -0.037238102 -0.07824857 0.04333757 0.040568437 -0.12516473 0.030658945 -0.080784366
0.034149908 -0.06549292 -0.09075516 -0.10718868 -0.082921594 -0.032819327 -0.10202719 -0.036388934
0.003236439 0.025293972 -0.113071516 -0.05679967 -0.075805455 -0.05851272 -0.06981047 -0.1121242
-0.01855464 -0.06674685 0.017386131 0.003956422 -0.115037076 -0.08807336 -0.09650147 -0.006560477
-0.061974447 -0.16074409 -0.14606826 -0.14920516 -0.11529987 -0.097877465 -0.12267721 -0.090081625
-0.11673542 -0.09983703 -0.12409952 -0.00946492 -0.0097722355 0.074590564 -0.12005549 -0.025296435
-0.029222539 0.02268052 0.025492666 -0.10897816 0.056062546 0.0077808728 -0.04624581 0.029135296
0.0009998285 0.06573801 -0.13125832 -0.16129215 -0.112706944 -0.059863735 -0.06774391 -0.08867349
-0.026632642 -0.09078206 0.04317916 0.0640296 -0.026116878 0.004625365 -0.014038418 -0.07213555
0.054502517 -0.10008646 -0.0854752 -0.02222282 -0.13061912 -0.079827935 0.028794724 0.039502
-0.009666027 0.117605165 0.0055841208 0.06742205 0.023496164 -0.03630889 -0.015094987 0.012256279
0.0009469994 -0.12071212 -0.18785879 -0.056334123 -0.10448269 -0.0746582 -0.18146783 0.0023468896
-0.11123872 -0.13628489 -0.022110917 -0.022031996 -0.020025952 0.19813128 -0.0046188924 0.0018008448
0.03377888 0.09157094 0.08356747 -0.1050411 -0.10661865 -0.18279548 -0.029612416 0.034604657
-0.124729104 0.08552572 0.04599449 0.101047955 0.10301354 -0.031308405 0.03354205 -0.029251782
-0.092779145 0.008778096 -0.05589282 -0.034756143 -0.16366808 0.053139642 -0.015065424 -0.0992572
-0.030473292 0.09294055 -0.053976085 0.11291653 -0.037475415 -0.13242702 -0.05995234 0.004118037
-0.054218255 0.16655537 0.036220595 0.021848563 0.19778569 0.19052544 -0.058172762 -0.11143303
-0.083549716 -0.27084863 -0.027507043 0.076157786 -0.100242704 0.01847142 -0.036205757 0.01890566
0.041038606 -0.045445442 0.089790754 -0.07390013 -0.055780787 0.07226389 -0.12006628 0.02109761
0.16220003 -0.004269492 0.038667843 0.12618004 -0.08284935 0.0077963206 0.015430038 0.032259863

layer3.bias f4 [11]
00000000: 79d8 82bd 3c4f 71bc f5d8 9c3d 53b5 f8bb
00000010: 4374 84bd c862 0a3c 8e65 a1bd fe92 8d3d
00000020: 4ffa a9bd 84fd 56bd a715 113d
-0.06388945 -0.014728364 0.07658569 -0.007589975 -0.06467488 0.008446403 -0.07880698 0.06912802
-0.08299696 -0.052487865 0.03542104

layer4.weight f4 [8, 11, 3, 3]
00000000: ca48 bf3d 10e3 9ebd e169 6ebb 314e f23d
00000010: b4bc d03d 1c99 42bd 694a 253e 4a62 a13d
00000020: 88af a9bd 5f57 f03c 966a 6bbd 0fb9 c5bd
00000030: d9aa 95bd 822c b9bd ccc3 a3bd f96c 7dbd
00000040: febb 13be dbc6 71bc dc5a 843d ddbb 0abc
00000050: 5426 85bd a50d c83d f802 143d 23c5 3e3d
00000060: a636 67bd 31dd a73d 0a63 2ebc bcde 753d
00000070: cded 28bc 2579 06bc f0ed 623d 5ff3 19bd
00000080: ace4 98bd dccb 0abb 9e70 8fbd 2576 9abd
00000090: 2c54 ebbb 33b7 d63b 1e1d 9bbd cffd 12be
000000a0: 43fa bbbc 6960 b1bd 7644 f0bd c1dd 903d
000000b0: ea88 0fbe f7db c53d 5455 42bc 5c78 e8bd
000000c0: 8ea7 25bd 8a8e 523c 4d84 94bd 9589 2cbd
000000d0: 458e 683d 98cc a8bd b4a8 c03d c266 e1bd
000000e0: b65e 69bd 7508 0fbd 0412 69bd 9d91 85bc
000000f0: 0608 e13d 4b3f 963c 2599 8f3c 96cb 86bd
00000100: 1ba4 05bd 4396 0ebc c84f 84bd b790 b83c
00000110: 8c17 93bc 8e72 b8bc 0cee 983d be7d d83c
00000120: 35fc d13d 6096 a4bc 4177 943c 5190 b33c
00000130: 245a 913d cadb 9a3d 07d7 973d 8f84 c43d
00000140: 7a9c f5bc 0b8d d73c fabe 913b e8c6 f0bd
00000150: 7e9f 94bd e8a6 b0bc 6263 5f3d 6580 873d
00000160: ce2f 14bd 2523 89ba 2295 f23b 7b28 32b9
00000170: 97e5 003d 1f1f 853d 9e9b a7bd 3539 75bd
00000180: b16b 5cbd 3559 e43d 62d4 6bbd c17b a4bd
00000190: 968e 52be 1acf d4bc f1b2 a83d 0c82 023e
000001a0: de0a ad3d 56d8 c43e 5780 a03e 14ec 853e
000001b0: d0ea eabc 6bc8 f1bc 3ac9 bdbc 8b31 e2bc
000001c0: 27e7 e1bc cc49 c9bd 5e37 e4bb 33df 303d
000001d0: 48f1 2d3d cbb5 29be f3fa 35be c091 eabd
000001e0: 3139 0abd 544c 3d3c a801 d13d 62c3 0ebd
000001f0: 0b16 e53d da26 2fbd ad39 05be 8263 c53c
00000200: cf4c fcbd 48bb 7d3d b950 ff3d f5f9 47bc
00000210: b5fa 073d ee09 f63c 4a54 a93c b592 983c
00000220: 52fc 87bd 83cf 0fbd 756c c8bc fb6e c4bd
00000230: e785 3fbe 412d 883d 2f86 393d 9ae2 9d3d
00000240: 2613 0abe 718a e1bc f5d7 363c 8fb8 0fbc
00000250: 45ad ec3d 9c91 053e 5c43 08bd 7d53 0cbe
00000260: 7e04 fdbd cc21 2abe f23c 73bd 5f52 e5bd
00000270: e2f6 cd3d 7490 083d 5e62 a13c 4b35 523d
00000280: d2d7 803d a4f8 873d 5955 cabd 5da3 aebd
00000290: 2488 213b 8984 873d eae9 79bb ebff a1bd
000002a0: b436 88bd ae04 c9bd 760b 2e3c 4050 67bb
000002b0: 4748 2fbe 49df 76bd 869b 2bbe 2059 e83c
000002c0: c943 72bd 4427 373e 5617 773e 6481 be3e
000002d0: d79d ecbd c6cf acbd 7e58 91bd 284a 3dba
000002e0: 625c 0a3e d44f 203e 831c 933e 95ad 283e
000002f0: 16b0 653e 4ea5 fbbd 4ac5 95be fca4 a5be
00000300: b724 aa3c fa61 103e 10e2 a53d 7efb 193e
00000310: c497 843e c668 603e 1df2 97be 8220 75be
00000320: f565 8dbe d211 04bf 655b 0dbf 6784 e4be
00000330: e159 00bf 728f d4be d559 93be 0bbe 53bc
00000340: da4b 9b3d 5074 d9ba 8b5d a23d 83f2 413d
00000350: 5d20 3cbc 7a02 d13d 61ac f2bd d72c 33bd
00000360: a832 db3c 6616 ae3d 9870 be3c 66a0 1f3e
00000370: 0d1c 20bc 9ac8 8dbd 2a2f 39bc eac1 9dbd
00000380: 5169 8abd 640a 6d3d c642 653b 3aee 5bbd
00000390: 82f0 35bd 2eaa a63d 8f33 3ebb d61f a93d
000003a0: 337d f33d 063d 3dbd c382 9bbd 4d87 9dbc
000003b0: 48d1 d6bc de7a 4abd 95b0 0ebb 8cc4 5ebd
000003c0: bbc8 11bd 5f85 773d a595 3dbc a31b a33d
000003d0: f881 dd3d b018 59bd 3baf fe3b 8718 ddbd
000003e0: 005d 7dbd cb82 62be 1d1d 7fbe 2720 dabd
000003f0: 7f2e ad3d 5187 cc3d 0199 eb3c 7444 a63c
0.09340055 -0.077581525 -0.0036379027 0.1183132 0.10192242 -0.047509298 0.16141666 0.07880075
-0.08285433 0.029338537 -0.057474695 -0.09654438 -0.07307977 -0.09041692 -0.0799633 -0.061871503
-0.14427182 -0.0147568835 0.064626426 -0.008467642 -0.06501451 0.097682275 0.036135644 0.046574723
-0.0564486 0.08196486 -0.01064373 0.06002687 -0.010310602 -0.008207594 0.055402696 -0.037585612
-0.07465491 -0.0021178639 -0.07003902 -0.075420655 -0.007181665 0.006552601 -0.07573913 -0.14354633
-0.022946483 -0.08660967 -0.11731808 0.07073546 -0.14017072 0.096610956 -0.011861164 -0.11351082
-0.040442996 0.012851367 -0.07251797 -0.042123396 0.056776304 -0.08242148 0.094071776 -0.110059276
-0.05697509 -0.034920175 -0.056901947 -0.016304785 0.109878585 0.018340727 0.01752908 -0.065818
-0.032627206 -0.008702817 -0.064605296 0.022529943 -0.017955564 -0.022515561 0.07467279 0.026427146
0.10253183 -0.020091236 0.018123271 0.021919401 0.07097271 0.07561453 0.0741406 0.09595596
-0.02998184 0.026312372 0.004447815 -0.11756688 -0.07256983 -0.021563962 0.05453814 0.06616286
-0.036178403 -0.0010462744 0.007403032 -0.00016990483 0.031468954 0.065000765 -0.081839785 -0.05986901
-0.05381364 0.111498274 -0.05757559 -0.08031417 -0.20562205 -0.02597766 0.08237255 0.12744921
0.084493384 0.384463 0.31347916 0.26156676 -0.02867642 -0.029514512 -0.023167241 -0.027611515
-0.027576042 -0.09828529 -0.006964608 0.04318161 0.04246643 -0.16573255 -0.17771511 -0.11453581
-0.03374595 0.011553843 0.10205394 -0.0348543 0.11185845 -0.04276166 -0.13010283 0.0240953
-0.123193376 0.061946183 0.124665685 -0.0122055905 0.033198077 0.030034032 0.020670075 0.018624643
-0.06639923 -0.035110008 -0.024465779 -0.0959148 -0.18703423 0.066492565 0.045293983 0.077092364
-0.13483867 -0.027531834 0.011159887 -0.00877203 0.11556486 0.13043827 -0.033267364 -0.13703723
-0.123543724 -0.16614455 -0.059384294 -0.11197352 0.10056855 0.033340886 0.019700225 0.051320355
0.062911645 0.06639221 -0.0987956 -0.08527253 0.0024647797 0.06617076 -0.0038133808 -0.079101406
-0.06651059 -0.09815346 0.01062285 -0.0035295635 -0.17117415 -0.060271535 -0.16758546 0.02836281
-0.059146676 0.17886072 0.24129996 0.37208092 -0.11553543 -0.08438067 -0.07096957 -0.0007220828
0.13511804 0.15655452 0.2873269 0.16472466 0.22430453 -0.12287389 -0.29252082 -0.32352436
0.02076946 0.14099875 0.080997586 0.15037343 0.25897038 0.21914968 -0.29676905 -0.23938182
-0.2761685 -0.5158969 -0.5521758 -0.44632265 -0.50137144 -0.4151569 -0.28779474 -0.012923728
0.07582827 -0.001659045 0.07927998 0.047350418 -0.011482325 0.102055505 -0.11849285 -0.043743934
0.026757553 0.08500366 0.023247048 0.15588531 -0.009772313 -0.06923027 -0.011302749 -0.07703002
-0.06758369 0.057871237 0.0034982427 -0.053693987 -0.04441882 0.08137928 -0.002902243 0.08258025
0.11889114 -0.046200775 -0.075933 -0.019229556 -0.02622284 -0.04943358 -0.0021772732 -0.05438666
-0.035591822 0.060429927 -0.011571323 0.07964256 0.10815805 -0.05300206 0.007772354 -0.10795694
-0.06185627 -0.22120206 -0.2491345 -0.10650664 0.08456134 0.09986747 0.028759481 0.020296313

layer4.bias f4 [8]
00000000: 4f57 6abc 02db c63d 3199 a0bd e1d6 373d
00000010: 1305 803d 2564 033d f214 20bd cbdf cd3d
-0.014303043 0.09709741 -0.07841719 0.04488266 0.06250968 0.032077927 -0.039082475 0.10052451

layer5.weight f4 [11, 8, 3, 3]
00000000: 4970 8a3d ee3c 74bd 86d9 2e3e 70d7 22bd
00000010: 8754 8ebb 0a07 523d ce9d 7ebd 81b8 e43d
00000020: 95c2 8bbd c4db 8c3d 7b85 ac3d 91b3 1a3b
00000030: 7736 86bd 2621 0dbe 30a9 0bbe 038b 993c
00000040: ea9f 963c 0aa1 413e 9bb1 3fbc 3d08 95bd
00000050: 75a3 0bbe 5baa d23d 1155 ccbd 29ea 99bd
00000060: c11c ee3c 468d 183e 9c98 4e3d 7b86 d63c
00000070: 0e5a a73d db6a 0f3d 9860 4f3c 9602 da3d
00000080: a6e0 96bd 2041 a3bc edfa 423d 7d64 aabd
00000090: 15d0 76bd aea9 793b d6aa 0cbd 918b d03d
000000a0: c1c0 193d 9932 d0bd 862b 313e 5ea4 c53d
000000b0: 5fb5 db3c 3cb8 32be 3500 483d 783f 203e
000000c0: da1f 74bd bab6 303d bb78 5c3e 94a8 7cbd
000000d0: c9ed 5f3d f8c7 063e aa95 b53d 5b68 453e
000000e0: 2b3e 27bd a9d3 003e d796 b03d 2d83 3ebe
000000f0: 98bd 3dbc 0018 a03c 2f3d 0ebe d577 973c
00000100: 6448 af3d 0b83 1b3e 08e1 43bd aee1 9fbd
00000110: 0d61 753d a421 b3bd 2d71 d0bd ab49 dcbc
00000120: d5e1 5f3d 891a 6d3d f519 4dba f635 0dbe
00000130: 85cd 9a3d dc64 02bd d3d9 3e3c a02b d03a
00000140: 19be 72bb 0e89 dc3d a503 5b3d 8773 d63d
00000150: 97d4 fbbd daca ecbd 14de 943d d106 5d3d
00000160: c3e3 05bd 1a94 173b 2ffa 913d 1413 c53d
00000170: 8cf0 4ebd 4713 02bd 1981 b4bd 8523 40be
00000180: db31 c13d 8160 04be f323 3abe 25f6 0bbe
00000190: 130c a8bd 51dd 03be 6168 8b3d e006 e7bd
000001a0: 1903 a93d 8273 ce3d ac3b aebd 0e74 d93d
000001b0: ff34 2a3d b8bb 8ebd d25e f8bc 5595 633b
000001c0: aee3 92bd 42ee 5fbd 704a 2cbd 2350 663b
000001d0: 69c2 5f3d 48c6 98bc 70d9 ca3c c6d6 3dbd
000001e0: e9ce ce3c c3f7 36bd 4b11 adbd 223a 4ebc
000001f0: b441 10be 451c dabc fd79 f53d 688b 0bbe
00000200: 0416 85bd 8f2f e93d 387a fabd 1008 093b
00000210: 3f82 3fbd 3ee6 b33d 3243 653d ad88 d4bc
00000220: 9d23 143d 45c8 08bd bc73 debb 0ef8 be3c
00000230: 8c95 0f3d a2f2 f13d 925d 1c3d 5a27 12be
00000240: 6d92 e73d f5db ee3b a6b6 f03b bd8b 88bd
00000250: 04cb 173e ad3e b9bd d321 043e 1428 3c3e
00000260: 1cc4 c73d cefd 923e 5d34 653e c436 a93e
00000270: 7b4f 5dbc afe5 08bd d260 5dbc d1f9 15bc
00000280: bdf2 d63b 1d52 1bbe 0747 6bbc 7509 543d
00000290: c5b6 e0bd eb23 e53c 7218 063e b3f3 5e3c
000002a0: 666c 84bd e8fd 85bd a989 723c 9f4a c23d
000002b0: c6bf 303d 45bb 183d e8a7 b03c 159c d5bd
000002c0: c30b ddbd 937e d6bd c363 043d 4e48 56bd
000002d0: 49ae 9a3d 80ff bd3d 532f 843d 9aee a2bd
000002e0: e8dd d7bd 8c45 39bd ed1d 8dbd bb28 b0bd
000002f0: f1e3 d4bd 912e 7d3d c0c0 35bd 8624 4d3b
00000300: 41a0 24be 48d8 c2bd d343 96bd d1f7 bfbd
00000310: 958d f43d d05d 283d 044a 9abc ba72 313c
00000320: 297a dbbd 2c1c 4ebe 6cd0 6cbe 136f b9bc
00000330: 0dbf 1f3c 859a c8bd 3367 01be 4810 9dbc
00000340: 15e9 f0bd dcfb 923c 9793 20be 9843 1bbd
00000350: d813 c6bd d3c5 9abd 10b7 2e3d 66fb 6dbc
00000360: 55a8 af3b 2ee8 0abd 8e5b 85bd ab0e b1bc
00000370: 0123 3c3d c9e0 fb3b fb5f b43d d105 cc3d
00000380: 90a1 f03c 2024 613c fa70 843d 0774 9d3d
00000390: 4892 27bc 63fb 533c ffc7 debc 557e 0a3e
000003a0: cc63 94bd dafb 67bd 43ff dfbd 468e 27bd
000003b0: 11fb efbd 6a27 303d cd9d 62bc 50d6 a13b
000003c0: 726f 79bc 8e2f 5abc 974b 26bd db19 383d
000003d0: f42c 9dbc c9b6 09bd eae1 f93c 3026 04be
000003e0: bd07 fbbd 367f 95bd 3dbe 09be ecbc 3d3b
000003f0: 31f2 4dbd 4ebe 7dbc de27 dfbd 63e4 e9bc
0.06759698 -0.05962842 0.17075166 -0.03975624 -0.0043435725 0.051276244 -0.062162213 0.11168004
-0.06824223 0.068778545 0.08423897 0.0023605565 -0.06553357 -0.13782176 -0.13638759 0.018743044
0.0183868 0.18909088 -0.011700059 -0.07276962 -0.13636573 0.10286399 -0.09977163 -0.07515366
0.029066445 0.14897642 0.05043851 0.026187172 0.081714734 0.035014015 0.012657307 0.106450245
-0.07367067 -0.019928515 0.047602583 -0.08319948 -0.060257036 0.0038095522 -0.03434261 0.1018287
0.03753734 -0.10165901 0.17301759 0.09650491 0.026819883 -0.17453092 0.048828322 0.15649211
-0.05960069 0.04314301 0.2153043 -0.061684206 0.05467013 0.1316222 0.08866437 0.1927809
-0.040830772 0.12580742 0.086225204 -0.18604727 -0.011580847 0.019542694 -0.13890527 0.018489758
0.08558729 0.15186708 -0.04782203 -0.07806717 0.059907008 -0.08746651 -0.101778366 -0.026890596
0.05465873 0.057886634 -0.00078239973 -0.13790116 0.07558731 -0.03183447 0.011648613 0.0015882142
-0.0037039577 0.107683286 0.053470273 0.10471254 -0.12296408 -0.11562128 0.072689205 0.05396158
-0.032687914 0.0023129047 0.07127797 0.096227795 -0.050522372 -0.031756666 -0.08813686 -0.1876355
0.09433337 -0.12927438 -0.18177776 -0.13668115 -0.08205428 -0.12877394 0.06807018 -0.11280608
0.08252544 0.10080625 -0.08507475 0.10617839 0.041554447 -0.06969398 -0.030318651 0.003472646
-0.07172333 -0.05467058 -0.042063177 0.003514298 0.054628763 -0.018649235 0.024761885 -0.046347402
0.025245147 -0.044669878 -0.08450564 -0.012587102 -0.14087564 -0.026624808 0.11986158 -0.13627398
-0.0649834 0.11386024 -0.122303426 0.0020909347 -0.04675507 0.087841496 0.055972286 -0.025944078
0.036166776 -0.033394117 -0.006788699 0.023311641 0.03505473 0.11813857 0.038175173 -0.14272824
0.113072254 0.0072894045 0.007345992 -0.06667278 0.14823538 -0.090451576 0.12903528 0.18374664
0.09754202 0.28709263 0.22383256 0.33049595 -0.013507719 -0.03342217 -0.013511853 -0.009153799
0.0065596984 -0.15168042 -0.014360196 0.05176683 -0.109723605 0.027971229 0.13095263 0.013607907
-0.06465988 -0.065425694 0.014803329 0.09486889 0.04315164 0.03728797 0.021564439 -0.10430161
-0.10793259 -0.10473361 0.032321703 -0.05231505 0.075527735 0.092772484 0.06454339 -0.07955666
-0.10540372 -0.04523234 -0.068904735 -0.08601519 -0.10395039 0.061811987 -0.044373274 0.0031302287
-0.16076757 -0.095139086 -0.07337155 -0.09373439 0.11941067 0.04110509 -0.018834122 0.010830576
-0.107166596 -0.20127934 -0.23126382 -0.022635972 0.00975014 -0.09795097 -0.12637024 -0.019172803
-0.11763207 0.017942362 -0.15681301 -0.03790626 -0.09671754 -0.07557263 0.04265505 -0.01452527
0.005360643 -0.03391283 -0.06511603 -0.02161344 0.04593182 0.0076867086 0.08807369 0.09962047
0.029373914 0.013741523 0.06466861 0.07688146 -0.010227747 0.012938353 -0.027194975 0.13524754
-0.07245597 -0.05663667 -0.10937359 -0.040907167 -0.11717809 0.04300634 -0.013831568 0.004938878
-0.015224325 -0.013317002 -0.04059943 0.044946533 -0.019186474 -0.033621583 0.030503232 -0.12905192
-0.12257335 -0.07299654 -0.13451476 0.0028951718 -0.0502798 -0.015487267 -0.10896276 -0.028551286

layer5.bias f4 [11]
00000000: 336b 15bd 2714 4bbd d92d 4f3d eeb1 2bbe
00000010: b271 0f3e d395 bb3d f446 27be 7541 833d
00000020: 6624 e9bd 8707 20bc 3c20 d4bc
-0.036479186 -0.049579766 0.050580833 -0.16767094 0.14008215 0.09159436 -0.1633566 0.06408969
-0.113838956 -0.00976742 -0.025894277

layer6.weight f4 [7, 11, 3, 3]
00000000: f73f c43d 940c 0a3e 36aa 14be bd49 8c3c
00000010: 3b8e 323d d8bb be3d 7194 1bbe d2d2 b83d
00000020: f0fe fd3c fc84 dcbc 2ca0 0cbe 2254 5b3d
00000030: 0451 b3bd ab4f 823c d3f2 6e3d 7c50 f83d
00000040: cfee 9ebd 240d e43d 68fb 613d f28c e9bc
00000050: a842 26be fffe e43a ce56 103e e378 bcbd
00000060: 2965 59be d72e 973d 3a69 a93c ef1e 47bb
00000070: f951 a1bd e9bd 4b3c 918e 9fbb f3b2 2bbe
00000080: 4a6a a83d 0837 8bbc efbf 93bd cbaf c2bd
00000090: 224f b23b 4ed6 753d 0f60 68bd 0cb7 0e3e
000000a0: 03b2 1bbd 054b 85bd 1924 90bc 5507 283d
000000b0: a20d 2ebc 72f4 fcbc a398 9bbd 1249 88bd
000000c0: c3ae 84bc 0b13 d93d a340 88bd 8182 603d
000000d0: 7e71 1c3e f2ca b53d 9f79 833d 9273 6abd
000000e0: 4884 b1bd bf4b 233d ed7a c9bd dbfd d5bd
000000f0: 5fa6 643d 02e8 ab3d 4372 a83d b5ed 163e
00000100: e591 503c fd02 cbba 33eb e63d 0132 683d
00000110: cd26 ffbc a9ba e73c 0996 fb3d 3bab 053d
00000120: 846b 9fbd a641 55ba 8ffd 163e d5be 573c
00000130: 12a2 d23d b938 a03e b8ae 2abe 0bd0 82bd
00000140: 0f98 143e a2bc ac3c a517 173e a603 f23d
00000150: 3e52 6a3d 6d95 b63d e96d 243e e065 67be
00000160: 91e4 1fbe 3ac9 f8bc 37d7 9c3c 441b eb3c
00000170: cc92 473e 3c9d 803d 384b a03c 459f 1f3e
00000180: a9b1 b6bd 72a1 1cbe ba05 123e 507c 173d
00000190: f256 33bd 0e3b 6fbe ee54 1d3e 1e00 a8bd
000001a0: 5c08 04be 2bad 933d 560e b53c 3666 e93d
000001b0: 3c60 b5bb c640 eb3b a551 8b3d 6e06 41be
000001c0: 0fb5 4dbd 6ede 383d 1004 1bbe 03a0 903c
000001d0: 7441 1f3e 8afa 3abd 2edb 2cbd cf8d 90bd
000001e0: 3cfd 763d 8e18 03be c3fd 653d 486b 00bd
000001f0: 3352 23bc 0005 493e a03f 06bc f001 c53d
00000200: dc92 063e f0b8 f4bd b106 8ebd 176a fe3d
00000210: 8e92 60be 2bfe ecbd f458 2a3e 6f83 083e
00000220: d382 323d 78df b73d a592 7f3d f817 43bd
00000230: e360 c13d c798 443b e9a5 de3d 47a5 11b9
00000240: fe04 d1bd 44f1 8d3c b582 69ba 7a7a c13b
00000250: e15c cdbd cab5 efbd 29c7 e1bc 0ff3 37bd
00000260: 6df6 53bd 2b02 6e3b e9bd 9dbd 695a 3ebd
00000270: a3a9 be3d c5b4 c0bd d043 843c eaba 86bd
00000280: 3f37 60bd 8972 59bd 6dd5 0cbd 9994 fa3d
00000290: ee52 f7bc cb6e ec3d 6b35 02be a254 febc
000002a0: a30f 9bba e2f3 21bd ca27 e63c d363 9abc
000002b0: fff1 943e eafd bbbc 312e e43d 97ea c63e
000002c0: 2aeb 0c3e 9a6f 183e b954 693e b802 783e
000002d0: 642c bc3d 5222 8c3d a451 de3c db1a 3b3e
000002e0: cdd8 1f3e 9801 24bc be52 e53c d052 3c3d
000002f0: b329 45bd 6010 1d3c e526 943d 7388 953d
00000300: f8bd 3a3d 7caf 383e eb2c 013e 2589 f63d
00000310: 6ba7 443c 65a2 db3b 4d28 3abe 0b80 a7be
00000320: a188 2f3d 2ca3 aabe 2475 0fbf e358 b2bd
00000330: ac03 45be c10e a3be d73d 15bc 829a 343e
00000340: 64dc 3a3e edc1 dcbd 140c 1d3e f0c0 103e
00000350: be24 68bd 1e0f 0d3e 3900 833d 5bb0 7dbc
00000360: 0c81 a8be 04e0 73be 7964 623e a58f 78be
00000370: 0ae5 4ebe bacd a0bb bd6c f2bd e8f1 82be
00000380: 8cdc 543d a235 fd3d 72b5 973d b867 4dbd
00000390: b61b 4d3d ff6f 333e d0fc 0fbe 6119 8a3d
000003a0: e439 ff3c 1fe2 40be 921c cb3c 0027 0c3e
000003b0: 80e2 683d d650 d93d 4228 303d 5cea 5fbd
000003c0: 3435 053e 4310 0e3d 3a84 b1bd 998a 2ebd
000003d0: ed18 42bd 9115 9bbd 8457 0e3d 465d acbd
000003e0: 685f 7d3d 9f59 40be 795e 75be f3e8 e6bd
000003f0: e2c8 edbd 5827 023d 537f 553d cd55 a2bd
0.09582513 0.1348136 -0.14518055 0.017125005 0.043592673 0.09313172 -0.15193345 0.09024586
0.031005353 -0.02691888 -0.13732976 0.053547032 -0.08755687 0.01590713 0.058337044 0.12124726
-0.07760393 0.11135319 0.0551714 -0.02850959 -0.16236365 0.0017471014 0.14095613 -0.09202745
-0.21229996 0.07381981 0.020680059 -0.0030383428 -0.07876963 0.012435415 -0.00486929 -0.16767482
0.08223398 -0.016994014 -0.07214343 -0.09506186 0.0054415623 0.06001883 -0.056732234 0.13937014
-0.038011562 -0.065084495 -0.017595338 0.041022617 -0.0106233675 -0.03087828 -0.075974725 -0.06654562
-0.016196614 0.10599335 -0.066529535 0.05481196 0.15277669 0.08876599 0.06419682 -0.057239123
-0.08667809 0.03986716 -0.09837899 -0.1044881 0.055822726 0.08393861 0.08224919 0.14739116
0.0127300965 -0.0015488561 0.112753294 0.056688312 -0.031146431 0.028287249 0.12284476 0.032634
-0.07784179 -0.00081350876 0.14745162 0.0131680565 0.10284819 0.31293276 -0.16668212 -0.06387337
0.14511131 0.02108604 0.14755113 0.11817102 0.05720734 0.089152195 0.16057552 -0.22597456
-0.15614535 -0.03036939 0.019145591 0.028699525 0.19489592 0.0627999 0.019567117 0.155881
-0.08920605 -0.15295961 0.14259997 0.036983788 -0.04378409 -0.23362371 0.1536443 -0.08203147
-0.12893814 0.072107635 0.022101562 0.11396448 -0.0055351537 0.0071793525 0.06802682 -0.18850109
-0.0502215 0.045134 -0.15138268 0.017654425 0.15552312 -0.04564909 -0.042201214 -0.07058298
0.060300097 -0.12802336 0.05615021 -0.03135231 -0.009968328 0.19630814 -0.00819388 0.0961951
0.1314196 -0.119493365 -0.0693487 0.12422579 -0.21930906 -0.11571916 0.16635495 0.13331388
0.043581795 0.0897817 0.06239571 -0.04763028 0.09442308 0.002999829 0.108714886 -0.00013889848
-0.1020603 0.017326958 -0.00089077215 0.005904493 -0.10027481 -0.117045954 -0.027560787 -0.044909533
-0.05174868 0.003631721 -0.07702238 -0.04647294 0.093096994 -0.09409479 0.016145617 -0.0657862
-0.054740187 -0.053087745 -0.034383226 0.12235374 -0.030190911 0.115445696 -0.1271569 -0.031046215
-0.0011830222 -0.039539225 0.028095145 -0.018846428 0.29090878 -0.022948224 0.11141623 0.38850853
0.13761583 0.14886323 0.22786225 0.24219787 0.09188154 0.068424836 0.027138539 0.18271963
0.15610047 -0.010010146 0.027993556 0.045977414 -0.04813547 0.009586424 0.07233981 0.07301416
0.045591325 0.18035692 0.12614791 0.12037877 0.012002806 0.0067027085 -0.18179436 -0.32714877
0.04285491 -0.33327615 -0.5603812 -0.0870836 -0.19239682 -0.31847194 -0.009108982 0.17637065
0.18248135 -0.10779176 0.15336639 0.141361 -0.056675665 0.13775298 0.06396527 -0.015483941
-0.32910955 -0.23815924 0.2210864 -0.24273546 -0.20204559 -0.004907337 -0.118371464 -0.25575185
0.051968142 0.12363745 0.07407655 -0.050147742 0.050075255 0.17523192 -0.14061284 0.06743122
0.031155534 -0.18836258 0.024793897 0.13686752 0.056856632 0.10611121 0.043007143 -0.054666862
0.13008577 0.034683477 -0.08667798 -0.042612646 -0.047387052 -0.07572473 0.03475143 -0.08416228
0.061858565 -0.18784188 -0.2396182 -0.112749 -0.11610581 0.031775802 0.05212338 -0.079265215

layer6.bias f4 [7]
00000000: 4d65 debd 40ef 9bbc 61e2 2dbe 5f2a 033e
00000010: 6b79 30bd 1a7e 423d 1f23 eebd
-0.10859165 -0.019034982 -0.16980888 0.12809132 -0.043084543 0.04748354 -0.116277926

layer7.weight f4 [11, 7, 3, 3]
00000000: 72c8 5a3b 9ddf 163e bda9 22be f717 e0bd
00000010: e296 333e 307f 9b3c d591 c7bd ec0d 093e
00000020: 1dbd 3dbd 8f36 dcbc 3699 393c 4def a83d
00000030: 172a 953d 1849 393d 8ee8 7b3e 2acc c2bd
00000040: 37d8 a4bd 6942 3e3e 722e e2b9 26ae 383e
00000050: 3d80 b63d 4f94 ae3b 1456 0cbd 0df6 53be
00000060: 99ed 423e 8fc1 45be 0540 06be c213 91b9
00000070: cd5d ad3c 6aee 083e 9155 21be b0f7 64bd
00000080: 012c 663c a677 683d 5475 5b3b 53df 62be
00000090: 1a1e 493e ad09 533e a7bb e03d b6fa 6a3d
000000a0: 940c 083e 1872 0dbe 6a33 2ebd 5c90 d2bd
000000b0: 6730 8ebe f551 1e3b d633 f9bd 39b8 663d
000000c0: 2e19 07bd 5019 853d 7c9f 83bd 8ce2 9b3d
000000d0: e8c5 e83d 4357 e3bd e1d0 003e ba40 113d
000000e0: 8dcb 9f3d ef59 ed3c f2a8 19be 6628 53ba
000000f0: 5d86 f2bd 3962 f93a c76f 033e b8c3 7a3d
00000100: 3528 b4bd 5e8c 723d afcd 5a3d a465 1fbe
00000110: 01bb 9fbc c686 16bb d2a0 fb3d fff0 cc3d
00000120: 4829 ebbd b690 31be 8edb 37be cb17 863d
00000130: 7997 55bd 7d76 d3bd aa40 e0b9 5917 783d
00000140: 5940 0abe 4276 f53d 273c c0bd be7b e53d
00000150: d19f d0bd 37ba d2bc 0775 8c3d fa2e 0e3e
00000160: 6c04 ebbd 212f d4ba de5a 4c3e 697c 1a3e
00000170: 4998 e33b 82e6 5e3d 2b5f 2abd 81de 89bb
00000180: 4894 febd 73fa 213d 3341 b13b 02a3 903d
00000190: c834 0b3e 6265 e73d fe7b eabb 3c15 9a3d
000001a0: d7d1 193e 96ea 85bd e177 ecbc c984 16bc
000001b0: 3ea8 ca3d 8319 b6bd e146 9c3d 9719 6f3d
000001c0: f080 3a3d 2317 913d 166f 95bd 354a d4bc
000001d0: 7506 69bd a620 cabd 87db 4d3c 2f60 953d
000001e0: 4ae6 87bd 8c56 f03d 51b8 6c3b 8fe1 8c3d
000001f0: 8176 0f3e f266 75bd 8a28 bb3d 1381 63bc
00000200: a413 153d c3ec 14be 791d 9dbd 7695 bb3d
00000210: bda6 bdbd 2cec 073e 3f20 6c3e 687c b7be
00000220: 1b4e 89be d1ea 853d 2a30 2ebe d8d9 17be
00000230: 1106 fa3d b198 61bc 311d cc3d 70b7 8a3d
00000240: a6e1 453e e820 1d3e 31c6 a4bd 85d2 ff3d
00000250: 214a 2c3d 2494 f3bd 9292 2e3e 90cb 2b3d
00000260: 56a6 5dbe b38c d7bd f890 813b 9ef8 bf3d
00000270: 1aee 503e c0f9 c03d fbe6 1a3e d240 273d
00000280: 5570 5c3d ccdd 0bbe d6a1 d43b 5516 1f3e
00000290: bbfd 07bd abfa 083e 4432 21bd 6740 be3d
000002a0: ff01 6dbb d782 caba 482b 0abd c6c6 ad3d
000002b0: 9f16 27bd b3c9 b0bd d8d6 bf3c ddc1 d43d
000002c0: 3f58 66bd 9644 e7bd e265 8c3d 8464 8fbd
000002d0: 3b83 ff3d b9bc 2e39 ad6f 4dbe b93a 0abd
000002e0: 6f6b 9a3c ba46 6cbe 0cd5 50bd 4622 7abd
000002f0: 1893 30be 1145 ba3c ba19 4a3d 5c60 053e
00000300: 1ef4 b3bb 6451 b13c b6c2 e03d c1e9 4dbe
00000310: d9d5 56bd 2718 76bc 8a6f 913d 21ef df3c
00000320: b712 663d d96b 133d d7c5 3c3d 9edb cd3c
00000330: b252 313e 27fb 1a3e fa90 3bbd 470a 903d
00000340: ccbc 09be b6cf 17be 89b0 70be b1d2 083e
00000350: 1d41 c1bd b957 83be a6de 653d 41a4 47be
00000360: d093 e5bc 7fbf 0cbd 94d3 5e3d 4d05 0d3e
00000370: 4a89 c4bc e00e dabd 3812 21bd 8b3a b93d
00000380: 5424 69bd 2c21 8bbd 7e2f 7f3d bef7 30bd
00000390: 270a acbc 763d 04be fb10 66be 1e29 9cbc
000003a0: eb48 e03d f603 f1bd b189 373c b8d5 943d
000003b0: 3d1e b33d 8a65 b2bd 4531 ef3d 1cf5 8bbd
000003c0: c2e1 adbd 2765 8ebd 2e00 b6bd 84b4 acbd
000003d0: 2e80 de3c d9d7 5d3c bdde 93bd 32c3 dabd
000003e0: 73e3 343d f4cc a93d bf6c aebd fae0 25bc
000003f0: a309 24be d0eb bebd 3e0e 0ebe 70a7 37be
0.0033383635 0.14733739 -0.15885063 -0.10942071 0.17538026 0.018981546 -0.09744612 0.13384217
-0.04632293 -0.026881484 0.011328032 0.08248768 0.072834186 0.045235723 0.24600431 -0.095115975
-0.08049052 0.18580021 -0.00043140684 0.18035182 0.08911178 0.0053277384 -0.034261778 -0.2069933
0.19035949 -0.19312118 -0.13110359 -0.00027671276 0.021162892 0.13372198 -0.15755297 -0.055900276
0.014048577 0.05675473 0.003348668 -0.22155504 0.19640389 0.2060916 0.10973292 0.057368003
0.13286048 -0.13813055 -0.0425295 -0.102814406 -0.27771303 0.0024157737 -0.1216809 0.056328032
-0.032982998 0.064989686 -0.064269036 0.0761157 0.113658726 -0.11100628 0.12579681 0.03546212
0.07802496 0.028973548 -0.15005854 -0.0008055031 -0.11842034 0.0019026465 0.12835608 0.06122181
-0.087967314 0.059215896 0.05341881 -0.15566117 -0.01949835 -0.0022968515 0.122865334 0.10006904
-0.11482483 -0.17340359 -0.17954847 0.06547507 -0.05214641 -0.10325334 -0.00042772788 0.06056914
-0.13501109 0.119854465 -0.09386473 0.112052426 -0.101867326 -0.02572356 0.06858259 0.13885108
-0.11475453 -0.0016188362 0.19956538 0.15086521 0.006945644 0.054419048 -0.041594665 -0.0042074327
-0.12430626 0.039545488 0.0054093837 0.07062341 0.13594353 0.11298634 -0.0071558943 0.075235814
0.15021454 -0.06538884 -0.028865756 -0.009186932 0.09895371 -0.08891585 0.076307066 0.058374014
0.04553312 0.07084491 -0.072965786 -0.02591429 -0.056890924 -0.098695084 0.012564546 0.07293736
-0.06635721 0.117352575 0.0036120603 0.068789594 0.1401005 -0.05991263 0.091385916 -0.013885754
0.036395684 -0.14543442 -0.07671637 0.09159367 -0.092603184 0.13273686 0.23059176 -0.35837102
-0.26817402 0.06538928 -0.1701056 -0.14829195 0.12208188 -0.013769315 0.09966505 0.06773269
0.1932436 0.15344584 -0.080456145 0.12491325 0.042062882 -0.1189349 0.170481 0.04194218
-0.21645483 -0.10524883 0.003954049 0.09373592 0.20403329 0.09422636 0.15127175 0.0408333
0.053818066 -0.13658828 0.006489019 0.15535863 -0.03320096 0.13376872 -0.039354578 0.092896275
-0.003616452 -0.001545037 -0.033732682 0.08485179 -0.040793058 -0.08632221 0.023417875 0.10388539
-0.0562365 -0.112923786 0.0685537 -0.07001594 0.12476202 0.00016664238 -0.20062132 -0.03374741
0.018850056 -0.23073855 -0.050984427 -0.061067842 -0.17243612 0.022738012 0.04934094 0.1302504
-0.0054917475 0.021645255 0.10974638 -0.20108701 -0.052450035 -0.015020407 0.071013525 0.027335705
0.05617019 0.035991523 0.046087112 0.025129136 0.17316702 0.1513487 -0.045792557 0.0703321
-0.13450927 -0.14825329 -0.23504843 0.13361622 -0.094362475 -0.25652865 0.056120537 -0.19496252
-0.028024584 -0.034362312 0.054400995 0.13771553 -0.023991246 -0.106473684 -0.039324015 0.09044369
-0.05691941 -0.067934364 0.06230115 -0.043205015 -0.021000935 -0.1291407 -0.22467415 -0.019062575
0.10951408 -0.117683336 0.011202262 0.07267326 0.08746002 -0.08710773 0.11679319 -0.0683386
-0.084903255 -0.06952887 -0.08886753 -0.08432868 0.02716073 0.013540232 -0.07220218 -0.10681762
0.044162225 0.08291045 -0.085168354 -0.010124439 -0.16019301 -0.093223214 -0.1387262 -0.17934966

layer7.bias f4 [11]
00000000: f8a0 34bd 8e41 043e 5255 9ebd 1c27 29be
00000010: bf8a 2dbe fe85 f0bd 1a0d 93bc c639 783c
00000020: d7db 73bd d0fe 79bd 1342 ebbd
-0.044098824 0.12915632 -0.07731117 -0.16518825 -0.16947459 -0.11744307 -0.017950583 0.015150493
-0.059535827 -0.061034024 -0.11487212

layer8.weight f4 [27, 11, 3, 3]
00000000: 9445 f9bc db84 e8bd ac8e afbe 3b9a e83c
00000010: e90e 1d3a 6596 2cbe 4069 47bd 151c 12be
00000020: 3eec 42be b009 b53d eddd dcbc db07 253e
00000030: ce24 8a3d d295 9ebd 1f12 1e3d c1bf 173d
00000040: 150e 6e3d 4482 26bd 5dd9 18be e66b 3cbe
00000050: 273f 1dbe 6c34 5fbd bd2c 25be 6c1d 84be
00000060: 3f0f fcbc defb 2bbe 5be2 57be 117d eb3c
00000070: 6c15 fe3c 6b11 063c ffc1 903d 8d66 9c3d
00000080: d9c4 133e 5e7d 5e3d 6898 063e 8f1c 9a3d
00000090: 1ae2 eebc 8fce 8ebd 2df9 933d e5e9 863d
000000a0: 4c50 823d 6429 d03c 97a2 9f3d 5177 123d
000000b0: eaf8 ac3d 2319 28bd ef46 e6bd 8ace d2bc
000000c0: be36 88bd d28e c3bd 0cb4 f93d 12d3 ddbd
000000d0: 5aff eb3b 8768 cf3d bdea 023e 4923 4f3d
000000e0: 6209 f93d dc90 e73d 1e9a 043e d8a4 7c3d
000000f0: c817 72bd 260a 47bc 3f9b 6a3d 1c1d 133b
00000100: a0a6 c23c 4102 e6bc 24f9 5ebd 2e7f 81bb
00000110: a8b0 be3b d120 3a3c 47ac 1bbd a221 01be
00000120: b301 87bc 1f0a 4bbe 5709 8bbe 36be 11be
00000130: 309d ecbd 6c7f 96be e028 f4bd 5f10 c8be
00000140: 03ab 94be 9840 4fbd 3704 bf3c c56e e8bb
00000150: 281d 553c e371 013e 7a31 78bd b8ca 853c
00000160: 1f7d 263d b172 85be 3d9e 64be 9c4e a83d
00000170: 9bd3 033d 3c9f 15bd 5a62 66bd 83b3 14be
00000180: 20fd 01be a5e2 22be 6e06 93bd 9efb a23d
00000190: 469b 02bd f25b 073d d675 273d 41f0 863c
000001a0: 81b7 13bd e9e7 4dbd 78da d6bd c9fb fbbc
000001b0: 9dc4 02be 2f68 16be 32ca a8bb 445d 89bd
000001c0: 1b8e 723d 6223 e73c 9f12 3e3c 2d52 d9bd
000001d0: a29c c9bc 5ed1 443d 12ce a2bd 0579 863d
000001e0: aa72 b73d c71a e8bc af9b d43c ebb1 d1bd
000001f0: 8e5c 6f3d 8cc8 f7bd 5713 bebc c269 273c
00000200: ff09 7a3c 909f fdbc b64b 8dbd 5c6d 813d
00000210: 0bf4 c2bd 7496 d8bd b696 6c3d f31f dd3c
00000220: 81c7 923d 3ea0 5d3d b775 06bd 90d1 8abd
00000230: 4ebf 6d3d 43c1 2c3b 49e9 88bd de37 b1bd
00000240: 80db 7b3d 33f7 73bd 1d6e c1bd 7221 073d
00000250: 8ed5 89bd ce7a ca3c 65aa eebd 88cd 833d
00000260: 9202 49bd 7b21 6cbd d883 51bd 7d5e 3c3d
00000270: 41f6 0f3d 7193 01be 19ff eb3c 44f3 f1bd
00000280: f303 64bd e944 f9bd 0060 51bd b95e 81bc
00000290: 469d 393d ab22 9dbd 4f60 923d c453 123e
000002a0: 1ab2 103d 7790 a9bd 3bcf b03d 8419 b63a
000002b0: 9510 a13c 15a8 b73c 2aaa eabd 2411 01be
000002c0: f019 dbbc b076 12be 7fce 16be 8177 ddbd
000002d0: 80cd 9e3c eb5d c4bd df66 78bd 9880 ecbd
000002e0: 0d82 1c3d 5f63 c3bd a20e e4bd 9205 c0bd
000002f0: 5b63 d3bd d8dc dd3c 4620 973d f942 bb3d
00000300: dd06 2b3d a392 b9bd 467d c4bd 2871 a23b
00000310: 5694 5c3d c6c4 d83c 07fc 40bc a3c9 203d
00000320: ce14 923c ad2a 913d 7730 833d a60c efbd
00000330: ecbe d2bc 38b3 9d3c b104 f1bd 22af edbd
00000340: d5d9 debc ea72 9ebd 6694 3ebc 742c 3bbc
00000350: 7322 c1bc 05ed e4bc 82c3 debc eb7e 83bd
00000360: 9bba 59bd 7c5f a7bd 8686 0dbc d256 b6bd
00000370: c5a3 0bbd cd1f 7abc f49d 073d 9621 ffbd
00000380: 4c51 1ebd 5a78 f4bd b121 dcbd 2cbf fbbc
00000390: 7f89 e4bd 9f3b 0ebd e719 7cbb a75e 9e3c
000003a0: 8d17 c93d 7e48 843d 43d4 ffbd 3ea9 c9bd
000003b0: 2821 7bbd 346b d8bd 8da1 3ebd ff60 ab3d
000003c0: a50f 2fbd 3474 d1bd 9607 1b3d 8a8b 4dbc
000003d0: c86f 03be a6a3 f53c 43bb c6bc f763 f0bd
000003e0: 5ff0 263c 4d75 aebd 19b7 99bd 3cbc e4bd
000003f0: 7235 1b3d 2708 483d 60ab c8bd 9c1f e3bd
-0.030428685 -0.11353465 -0.34288538 0.028393855 0.00059912965 -0.16854246 -0.04868436 -0.14268525
-0.19035432 0.08839738 -0.026961291 0.16116278 0.06745301 -0.0774342 0.0385915 0.037048105
0.0581189 -0.040651575 -0.14926668 -0.18400535 -0.15356122 -0.054493353 -0.16130348 -0.25803697
-0.030768989 -0.16795298 -0.21082442 0.02874616 0.031016074 0.008182864 0.07068252 0.076367475
0.1443056 0.05431878 0.13144076 0.07524978 -0.029160548 -0.06972992 0.07225261 0.065875806
0.06362972 0.025410362 0.077946834 0.03575832 0.08445914 -0.041039597 -0.11243998 -0.025733251
-0.06651066 -0.09548725 0.12192544 -0.10831274 0.007202071 0.10127359 0.12784858 0.05057076
0.12159993 0.113069266 0.12949416 0.061680645 -0.05910471 -0.012148416 0.05727696 0.002244777
0.023761094 -0.028077247 -0.054436818 -0.0039519286 0.005819399 0.011360363 -0.038006093 -0.12610486
-0.016480302 -0.1982808 -0.27155563 -0.14232716 -0.11553419 -0.2939409 -0.11921859 -0.3907499
-0.29036722 -0.05059871 0.02331744 -0.007093283 0.01300744 0.126411 -0.06059406 0.016332015
0.04064667 -0.26064065 -0.22325988 0.082181185 0.032184225 -0.03652881 -0.05624614 -0.14521603
-0.12694216 -0.1590677 -0.07178961 0.079581484 -0.03188636 0.03304667 0.04088386 0.016471984
-0.036063675 -0.050269995 -0.10490888 -0.030759709 -0.12770315 -0.1468818 -0.0051510567 -0.06707242
0.059217554 0.028215114 0.011601119 -0.10611377 -0.024610821 0.04805123 -0.07949461 0.065660514
0.08957417 -0.028333081 0.025953142 -0.10239013 0.058437876 -0.12098798 -0.023202581 0.010218086
0.015261172 -0.030959874 -0.06899206 0.06319687 -0.09519204 -0.10575572 0.057760917 0.026992774
0.071669586 0.054107897 -0.032827105 -0.06778252 0.05804377 0.002636031 -0.066851206 -0.08653234
0.06148863 -0.05956192 -0.094448306 0.03299088 -0.067301854 0.024716761 -0.11653594 0.06435686
-0.049074717 -0.057649117 -0.051151127 0.04598855 0.035146955 -0.126539 0.028808163 -0.11813977
-0.05566783 -0.12171347 -0.051116943 -0.015792238 0.045316003 -0.07672628 0.07147276 0.14289767
0.0353261 -0.082795076 0.08633276 0.0013893102 0.019661227 0.022419015 -0.114582375 -0.12604195
-0.026745766 -0.14303088 -0.1472721 -0.10813809 0.0193851 -0.09588226 -0.06064498 -0.11547965
0.038209964 -0.09540438 -0.111356035 -0.093760625 -0.10321685 0.027082846 0.073792025 0.091436334
0.041754592 -0.09061172 -0.095942065 0.004957337 0.0538524 0.026461016 -0.011778838 0.039254796
0.017832186 0.07088218 0.06405728 -0.116723344 -0.025725804 0.019250497 -0.11768473 -0.116056696
-0.02720348 -0.07736762 -0.011632061 -0.011424173 -0.023575997 -0.027945051 -0.027192835 -0.06420692
-0.053156476 -0.08172509 -0.00863803 -0.089032784 -0.03409173 -0.015266371 0.03310962 -0.12457578
-0.03865175 -0.11937018 -0.107486136 -0.030730806 -0.11159038 -0.034724828 -0.0038467587 0.019332243
0.09818945 0.06459139 -0.124916576 -0.098467335 -0.061310917 -0.105673224 -0.046540786 0.0836811
-0.04273953 -0.10227242 0.03784903 -0.012545476 -0.1283561 0.02998526 -0.024259215 -0.11737817
0.010189145 -0.08518467 -0.07505626 -0.11168715 0.037892766 0.0488359 -0.09798312 -0.110900134

layer8.bias f4 [27]
00000000: 9fce 7fbd 0a7d f23a 1cd5 26bd 43b8 49bd
00000010: 9cec 023e 5b3c 9c3c 94af a7bb 99f6 37bd
00000020: 57ad 0abd 5e4d bdbb 9824 603d 94ce 08bd
00000030: db60 703d abb4 a93b 88d6 e3bd c228 c13c
00000040: f5d1 2a3d 711b 723c aedf 25bd 46cc 9e3d
00000050: d142 05bd fefb f83c 18d8 b0bd 23ea 02be
00000060: 7678 a53c 91a4 f73d fffe 4fbb
-0.06245291 0.0018500399 -0.04073058 -0.04924799 0.12785572 0.019071748 -0.005117366 -0.04491291
-0.033856716 -0.005777045 0.0547224 -0.033400133 0.05868612 0.005179008 -0.11124903 0.023579005
0.041704137 0.01477705 -0.04049652 0.07753806 -0.032534424 0.030393597 -0.086349666 -0.12784629
0.020199042 0.120919354 -0.0031737683
