trained_models/emotionnet_nano_with_ck+48(36%, rotation).pt (torch, 577715 bytes, 44 tensors)

layer1.weight f4 [11, 1, 3, 3]
000000 e4 b3 80 be 05 4e 8b 3e 35 da 4a be 89 a6 b2 3d
       -0.25137246 0.27207962 -0.19809802 0.0872317
000010 70 e5 dc be 82 e4 6c bd 16 b6 22 bd d2 16 a6 3e
       -0.43143797 -0.05783511 -0.039724432 0.32439286
000020 fa 4a 74 bc a8 f2 53 3c 69 9e f7 3d 90 21 e1 3d
       -0.014910454 0.012936272 0.12090761 0.1099273
000030 ed fd ed bd fd c9 62 3e 51 7d 45 be 16 dd 02 3c
       -0.11620698 0.22147365 -0.19286086 0.007987281
000040 42 07 f9 bc f0 ba 7c be f5 86 95 3e 32 b9 98 3e
       -0.030398969 -0.24680686 0.29204527 0.29828793
000050 86 71 c4 bd 46 28 08 3e bf 4b 4b be 35 f3 f2 bd
       -0.095919654 0.13296613 -0.19853114 -0.11862794
000060 e3 c5 e8 bd c2 51 25 3c 3e 8f 88 be 5e d8 81 3e
       -0.11365869 0.010090293 -0.26671785 0.25360388
000070 eb cc ba 3d 69 66 06 bc 57 f5 ad 3e 08 f3 53 be
       0.09121116 -0.008203127 0.33976242 -0.20698178
000080 f1 9d f5 bd aa e1 72 3e 3f 7d 51 be 00 26 20 be
       -0.119930156 0.23718897 -0.20457934 -0.15639496
000090 70 aa 89 3e a8 5e 99 3e 87 df bf 3d 0b b9 7c 3e
       0.26887846 0.2995503 0.09368806 0.24679963
0000a0 0e bc 23 3e d6 27 af 3e b6 79 ab 3e 11 fd 99 3e
       0.15989706 0.3421008 0.33491296 0.30075887
0000b0 e9 14 a6 be 5b 4b 88 3e 61 f9 66 be e4 7f 7e 3e
       -0.32437828 0.26619992 -0.22556068 0.24853474
0000c0 e9 5f 49 3e f8 c0 30 be 0b b8 8c be 39 2d b0 3e
       0.19665493 -0.17261112 -0.27484164 0.34409502
0000d0 42 66 f8 bd 68 35 0b be 91 89 30 be 24 f2 bd 3d
       -0.12128879 -0.13594592 -0.17239977 0.092747
0000e0 e2 93 17 3e 9b 6e 90 3e a8 70 ee bd 86 03 93 3e
       0.14802507 0.28209385 -0.11642581 0.28713626
0000f0 b0 a8 3b 3e ca bf de bd f7 38 7a be a8 05 a5 be
       0.18326068 -0.108764246 -0.24435793 -0.32230878
000100 24 ab 4c 3e 5f b7 14 be 4d 21 98 3d b0 f9 2c 3e
       0.1998716 -0.14523076 0.074282266 0.16892123
000110 2f c9 6c 3e bc e1 70 be 14 eb 88 be ca 8e 14 be
       0.2312362 -0.23523611 -0.2674185 -0.14507595
000120 67 1b 83 be d2 56 e0 bd 1f 10 a6 bd ad 13 14 3e
       -0.25606844 -0.1095406 -0.081085436 0.1446063
000130 d7 9b 4a be 8d 7e 82 3d 4c 67 b6 bd b8 42 be 3c
       -0.1978601 0.06371794 -0.08906421 0.023225173
000140 73 6b 8d 3e cd 00 ff 3d f7 84 e7 bd 97 2f a5 bd
       0.2762104 0.124513246 -0.11304658 -0.08065718
000150 b3 69 a7 be 36 12 c2 bd 8b a9 8f bd a7 c4 14 3e
       -0.3269783 -0.0947613 -0.0701476 0.14528142
000160 a4 ce 0e 3c c3 c4 a0 3e 82 90 87 bd 7f b9 9d 3d
       0.008716259 0.31400117 -0.066193596 0.07701396
000170 09 7e 83 bd bb bf a8 bd c0 b3 87 3c 3c 38 1e 3e
       -0.06420524 -0.08239695 0.016565204 0.15451139
000180 17 a9 78 be 34 46 13 3d 5d c7 88 be
       -0.24283253 0.035955623 -0.26714602

layer1.bias f4 [11]
000000 8d 14 9b 3d dd 13 5e 3d fe 80 df 3b d7 4e 74 be
       0.07572279 0.05421816 0.006820797 -0.238582
000010 32 6d 22 3e 2a 9a bc bd 12 96 03 bd e4 6d 0b 3e
       0.15861967 -0.09209092 -0.03212554 0.13616139
000020 5b a9 22 3e 0e cf 73 3d 0e 65 f1 3d
       0.15884916 0.059523635 0.11786853

layer2.weight f4 [9, 11, 3, 3]
000000 79 da 66 3d 5b 07 5f bd cd 1c ae 3d a8 0c b0 3d
       0.056360696 -0.054450374 0.08501587 0.08596164
000010 39 48 72 bd 71 3a 83 bd 4c d9 52 3d 22 13 9c bc
       -0.05915091 -0.06407631 0.05147676 -0.019052092
000020 ad f5 cd 3c 08 7d 6e 3d cd 3a 2c 3d 8e 3d 92 bd
       0.025141561 0.058224708 0.042048264 -0.07140647
000030 b8 0c e5 bd b6 88 de bd ff b5 d0 3b 9c 40 2d 3c
       -0.111840665 -0.10865919 0.006369352 0.010574486
000040 f0 02 46 bd f2 53 8a 3d 85 9b ba 3d 9a c1 b0 3d
       -0.048342645 0.067542925 0.09111694 0.086306766
000050 26 fd 80 bd 07 c7 73 3d b9 2d 47 bd b8 ac 98 3d
       -0.06298284 0.05951598 -0.04862759 0.074548185
000060 3b d4 0e bd 5f d6 09 bd 7a 08 bc bd 7c e7 4e 3c
       -0.034870367 -0.033651706 -0.09181304 0.012628432
000070 2b e1 cd 3d e8 db ba bd 08 d5 71 bc e2 09 13 3c
       0.10052713 -0.09123975 -0.014760263 0.008974524
000080 54 60 a1 3c 3d ae 9e 3d 6c 56 53 bd c9 dd 18 bd
       0.019699253 0.07748077 -0.05159609 -0.037320886
000090 59 89 03 bd a1 54 97 bd 13 9f f6 bd 5d 30 aa bb
       -0.032113407 -0.073891886 -0.1204206 -0.0051937536
0000a0 6d 19 cb bc ae 67 24 bc 88 90 2a bd 29 31 ac bd
       -0.024792397 -0.010034485 -0.041641742 -0.08407814
0000b0 38 89 28 bc 9f 01 b9 3d ce 9d 1f bd 4f 3a 37 ba
       -0.010286622 0.09033512 -0.038968854 -0.00069895847
0000c0 38 ed 91 bd 59 d7 d5 3d 8e fe a0 bd 3a 65 15 bd
       -0.07125324 0.10441465 -0.078610525 -0.03647349
0000d0 a5 93 bb bd aa 5f 81 3d c5 41 96 bd e7 ef 88 bd
       -0.0915902 0.063170746 -0.07336763 -0.06686383
0000e0 a3 31 92 3d 57 54 98 bd ed d8 9f 3c 73 42 04 bd
       0.07138374 -0.074379615 0.019512618 -0.032289933
0000f0 4e 66 3a bd ab d5 a5 3d e1 15 f1 3b b5 d8 ab 3b
       -0.04550772 0.080973946 0.0073573445 0.0052443394
000100 94 ab 99 bd f2 bb 18 bd 3e 45 97 3c 93 f7 49 bd
       -0.07503429 -0.037288614 0.018465634 -0.04930837
000110 e4 5a 22 bd c2 3a 2d bc fb 1b c9 bd b5 5d 9e 3d
       -0.03963746 -0.010573091 -0.0981979 0.07732717
000120 7d 1d 26 bd 36 4e 0d bc 99 1e c6 bd 37 2b a6 bd
       -0.040555466 -0.008624604 -0.09673805 -0.08113711
000130 f3 53 2b bd 9e 8e 3d 3c 77 15 61 bd 15 41 72 3b
       -0.041828107 0.011569647 -0.05495211 0.0036965061
000140 04 a1 ec 3c 64 b5 ae 3d 5c bd 93 3d e2 00 0a 3d
       0.028885372 0.08530691 0.07213852 0.03369225
000150 bb 99 87 3d f7 5b 33 ba 58 4e d4 3c 57 17 ca bd
       0.06621119 -0.0006842012 0.025916263 -0.09867733
000160 c0 c2 f1 bd 47 11 ff bc be a5 81 bd 9e 72 dc bd
       -0.11804724 -0.031136168 -0.06330441 -0.10764049
000170 fc a2 40 bd 8e ab ee 3c 85 bf 87 3b 40 68 5e 3d
       -0.047030434 0.029134538 0.004142704 0.05429864
000180 24 a1 80 bc 96 81 1a bd f6 cd ac bd 52 a8 86 3c
       -0.015701838 -0.03772124 -0.084377214 0.016437683
000190 cc c3 d1 bd b4 a5 0a be f6 d8 e7 bd 27 1b 3c be
       -0.102424234 -0.13539773 -0.11320679 -0.18369733
0001a0 64 64 33 bd d6 90 f2 bd 22 ea f5 bd 7d 03 e9 bd
       -0.04379691 -0.118440315 -0.12007548 -0.113776185
0001b0 53 11 17 3c 70 e6 f5 3b 57 c7 df bc d9 32 98 bc
       0.009220439 0.007504277 -0.027316732 -0.018578934
0001c0 6f 7f ca 3c 29 b3 01 3e 58 8e b0 bd b1 38 1c bd
       0.024718968 0.12666 -0.086209 -0.038140003
0001d0 4a db bb bd 62 ad 06 3e 28 6b 3e 3e 2b 32 e7 3d
       -0.091726854 0.13152078 0.18595564 0.11288866
0001e0 b8 21 2f 3e 55 f9 cf 3d 39 13 9b 3d 35 e9 99 bb
       0.17102706 0.10154978 0.07572026 -0.00469699
0001f0 fc f0 17 3d fe 0e b7 bd de f0 86 3d 8e b1 00 3e
       0.037095055 -0.089384064 0.065889105 0.12567732
000200 81 87 80 bc c0 d4 09 3e 70 56 93 3c de 45 f2 bc
       -0.015689613 0.13460064 0.017985553 -0.02957433
000210 ba 44 fd 3d 0b f1 10 3e 8f fe 8d 3d 12 f6 c1 3d
       0.12366624 0.1415445 0.06933319 0.09470762
000220 6d d3 a0 3b 78 03 87 bd 53 79 df bc 30 ca 37 bd
       0.0049080164 -0.065924585 -0.027279532 -0.044870555
000230 c1 4b c4 bd 89 ca d9 3d f1 b0 a4 bd 17 53 89 3d
       -0.095847614 0.10634334 -0.080415614 0.06705301
000240 3b fd 68 3e 12 70 1e 3d f8 82 62 3d 9a 00 01 3e
       0.2275285 0.038681097 0.055300683 0.12597886
000250 9b f3 3a 3d 27 8d f6 3c 11 20 80 3d 06 21 6c 3e
       0.045642477 0.030096604 0.06256116 0.23059472
000260 b5 40 3e 3e 44 d1 f7 3d 91 a2 94 bc dc a6 8f bd
       0.18579371 0.12100461 -0.018143924 -0.07014248
000270 56 3d dd 3d 62 8c 59 bd e6 1e c9 bb 36 0a 28 3d
       0.108027145 -0.053112395 -0.0061377166 0.041025363
000280 cf 6c b4 bc be 58 b7 3b 3e fe 7c 3d 4f 5a 8d 3d
       -0.02202454 0.0055952957 0.0617659 0.069019906
000290 d2 cc da 3d 7b 9f 7a 3d 7e 4f 56 bc 7e 7b 6d 3c
       0.106835976 0.06118725 -0.013080476 0.014494775
0002a0 d1 48 cd 3d 9e 4b 5b 3c cb 54 eb 3d 08 7c c8 bd
       0.10023654 0.013384728 0.11490782 -0.09789282
0002b0 b8 cc b6 bd 62 1f 8c bc c2 4e ce bd af 06 36 3d
       -0.08925766 -0.017104808 -0.100736156 0.044439968
0002c0 4d cb 92 bd ae fd ec 3c 17 8e cf 3d bb 4a fe bc
       -0.07167683 0.028929558 0.10134523 -0.031041494
0002d0 d2 32 8f 3d 77 b0 9c bc e4 88 8c bd 66 38 cc 3d
       0.06992115 -0.019127114 -0.06862047 0.09971695
0002e0 2f 88 ed 3d cb 7c 53 3d d0 6a 0f bd b3 65 b9 3d
       0.115982406 0.051632684 -0.035013974 0.09052601
0002f0 5a ef 07 3e ab 72 a5 3d 5b 96 1c 3d 30 7d ff bc
       0.13274899 0.08078512 0.038229328 -0.031187624
000300 e1 1b 12 bd 1d d5 25 bd 5c e6 e9 3d 83 fa 69 bc
       -0.03567112 -0.040486444 0.11420891 -0.014280918
000310 5e f8 03 bd 76 77 d8 3d ef ff a9 bc f0 36 66 bd
       -0.032219283 0.1056966 -0.020751921 -0.056204736
000320 91 0f 17 be 7d 12 64 bc 38 5c b8 bd 4b 9f 1e be
       -0.14752032 -0.013920424 -0.09001964 -0.15490453
000330 0a 0f cb 3d 62 a1 eb 3c 52 64 0a 3d 0b c7 ce 3d
       0.09914978 0.028763477 0.03378708 0.10096558
000340 ce 37 69 bc d3 3d 82 3c b4 57 7e 3d 31 8e a3 3d
       -0.014234496 0.01589862 0.06209536 0.07986105
000350 b6 0a ca 38 52 97 1d bd 54 71 3b bd 2c 02 13 3e
       9.634106e-05 -0.03847439 -0.045762375 0.14356297
000360 14 2b 59 3d cd e5 a5 3d d7 3c 26 3d 38 f0 06 3e
       0.053019598 0.08100472 0.040585365 0.13177574
000370 02 72 2a 3d 62 30 e9 3d 83 52 03 3e 34 ea e9 3d
       0.041612633 0.113861814 0.12824444 0.11421624
000380 11 b0 06 bc ba bc 4a bd 46 9e c8 3d 61 80 6d 3d
       -0.008220688 -0.04949639 0.09795813 0.05798376
000390 9b d4 a4 3d c8 c4 74 3d c9 30 b9 3d 2e a6 b8 3d
       0.08048364 0.059757978 0.09042508 0.09016071
0003a0 06 c4 1e bc ad bf 1a 3e a6 41 c0 bd 84 56 97 3d
       -0.00969029 0.15112181 -0.093875214 0.073895484
0003b0 81 f2 50 bd 6c 0f da bb 28 21 71 3d ce ea b6 3c
       -0.05101252 -0.0066546705 0.05886951 0.02232876
0003c0 c5 99 26 3d 58 5b 94 bc 43 e0 45 bd 60 d4 1f 3e
       0.04067399 -0.018109962 -0.048309576 0.15608358
0003d0 e3 a6 e4 3d cc 4c 2f 3d ac 4b a7 3d ed d3 c9 3d
       0.111646436 0.04279785 0.0816873 0.09854875
0003e0 13 37 65 3e f2 fc 21 3d 87 80 20 3e 44 95 22 3e
       0.2238429 0.039547868 0.1567403 0.15877253
0003f0 35 5d c7 3c 9a 33 5b 3d 55 9c be 3d b2 87 06 bc
       0.024336437 0.053516008 0.09307162 -0.008211063

layer2.bias f4 [9]
000000 ca ed 73 3c 83 6a 37 3c f9 98 35 3c 58 2b 27 bd
       0.014888236 0.011194828 0.011083835 -0.04081282
000010 40 77 ac 3c f1 7b a5 3d 4c 06 e9 bc cd 49 ba bd
       0.021052957 0.080802806 -0.028445385 -0.09096108
000020 4d 84 a4 bc
       -0.020082617

layer3.weight f4 [11, 9, 3, 3]
000000 79 2b 38 3d c7 72 b9 bd dd 94 c8 bd 24 e9 52 bd
       0.044963334 -0.09055095 -0.097940184 -0.05149187
000010 20 c0 b3 3d 1c f7 a4 bd b4 0a af 3d 2c 0e 92 bd
       0.08776879 -0.08054945 0.08546963 -0.07131609
000020 07 43 39 3a 1d 2b 74 bd db 27 37 bb 40 09 b0 bc
       0.0007067178 -0.05961143 -0.002794734 -0.021488786
000030 54 a8 53 b8 9b 81 86 bd 5a 84 78 bb f5 d6 89 bc
       -5.0463088e-05 -0.06567689 -0.0037920685 -0.016826132
000040 33 72 e5 bd db 35 26 3d e4 96 bc 3c aa 04 d8 bd
       -0.112034224 0.040578704 0.023021169 -0.105477646
000050 89 60 2a 3d 77 ca 19 bc 04 f2 32 3d 05 74 7b bd
       0.04159597 -0.00938665 0.043687835 -0.06138994
000060 f6 4a 9d 3d 15 59 7c ba 0d 50 a0 3c 83 c1 f1 3c
       0.07680313 -0.00096263114 0.019569421 0.029511219
000070 33 ff a4 bd 88 ee af 3d 0f 21 44 bd ed a7 c7 bd
       -0.08056488 0.08590418 -0.04788309 -0.09748826
000080 44 7d 9f 3d b6 8f 01 be ab cc 67 bd 72 b9 d5 3d
       0.077875644 -0.12652478 -0.05659167 0.104357615
000090 a0 8d e0 3c 15 a8 bd bc e7 9e 03 3d cf e4 a6 3d
       0.027411282 -0.023151437 0.032133963 0.081491105
0000a0 09 22 17 3d c5 ef b0 3c 03 b8 e1 3d 30 9c 9b 3c
       0.036897693 0.021598706 0.110214256 0.018995374
0000b0 aa a7 1c 3d b8 25 63 bc f9 c7 65 bd 9c 68 b5 3d
       0.038245834 -0.013863973 -0.056098912 0.08857843
0000c0 f2 72 77 bc b6 2c 12 3d 48 af b0 bd aa d7 bc bd
       -0.015103089 0.03568717 -0.08627182 -0.09220822
0000d0 20 7a ce bd 82 a9 87 bd 16 7c 34 bd 7b 76 aa bc
       -0.10081887 -0.06624128 -0.04406365 -0.020808449
0000e0 82 c1 47 3d 42 c8 4e bd ec 75 88 3d 0c af 85 3d
       0.048768528 -0.05048395 0.06663117 0.06527528
0000f0 e6 d0 ef 3c 93 e1 65 3d bc 9e a3 bd 49 70 99 bc
       0.029274415 0.056123327 -0.079892606 -0.0187303
000100 0d 33 50 3d bb 76 f4 bc 7b 8c 82 3d 90 0d ef bd
       0.050829936 -0.029841771 0.06374451 -0.11672509
000110 90 f5 ac 3c 4f 5e 4f 3c d6 f5 d7 bc 53 a0 3f 3d
       0.021113187 0.012656762 -0.02636234 0.046783756
000120 18 50 80 3d ff b9 47 b9 6e 20 80 3d fd 65 d3 bd
       0.06265277 -0.00019047408 0.062561855 -0.10322187
000130 7b 8d 3e 3d 5a d6 cf bd 89 92 e8 bd 20 db a0 bd
       0.046521645 -0.10148306 -0.11356074 -0.07854295
000140 e9 0d 98 3a 1a 8f 30 bd 58 8e 13 bd f8 64 31 bd
       0.0011600825 -0.043105222 -0.03602442 -0.043309182
000150 6d 3f 6f 3d f3 ac 54 bd bc d6 b0 bc 6f 0b 04 3e
       0.058410097 -0.05192275 -0.021586768 0.12894987
000160 e9 63 bf 3d 35 07 14 bd 3c ae 24 3e dd 78 8c bd
       0.09345228 -0.036139686 0.1608209 -0.0685899
000170 e5 8b af bd 31 14 33 3e b3 05 89 3c 7f 9e 57 3d
       -0.08571605 0.17488171 0.01672635 0.052641388
000180 45 25 e8 3b 96 80 ff 3d e0 5c 80 bd 48 e0 0a 3e
       0.007084521 0.12475698 -0.062677145 0.13562119
000190 18 a5 fc bb b3 bf 4d bd 42 82 02 3e 1d 98 3d bd
       -0.0077101104 -0.050231647 0.12745002 -0.046287645
0001a0 80 99 c1 bb 84 80 17 3e 69 d9 f6 3d d6 40 04 bc
       -0.005908191 0.14795119 0.120531864 -0.008072099
0001b0 53 ed 92 3d 1b 1a 8f bc d3 7b 1c 3d 2a 49 92 bd
       0.07174172 -0.017468503 0.038204025 -0.07142861
0001c0 ae 0a 90 3d da ee 5c 3d 11 8e 73 bd f2 05 f0 3d
       0.07033287 0.053938724 -0.059461657 0.11719884
0001d0 39 5a c0 bd 10 18 2d be a1 b3 88 bd 86 86 80 be
       -0.093922086 -0.1690371 -0.066748865 -0.25102633
0001e0 63 79 40 be 28 15 27 be 03 fd 40 be 11 29 4b bd
       -0.18796305 -0.16316664 -0.18846516 -0.04959971
0001f0 8a 67 94 bd e5 6a 16 3c f7 0a e4 bd ad b5 ad bd
       -0.07246311 0.009180759 -0.11134904 -0.084819175
000200 53 80 5a 3d 03 6f ab bc 9a fe b8 bd 81 f8 93 3d
       0.053345036 -0.020926958 -0.090329364 0.07225133
000210 e8 60 7c bd cf e5 8f bd e3 2a 6c bd a6 14 83 3d
       -0.061615855 -0.070262544 -0.057658087 0.06400423
000220 d0 0f ab bc 15 0c 8b 3d 96 8d 04 bd 84 9d 75 3a
       -0.020881563 0.06789414 -0.03236159 0.000936948
000230 03 b7 96 3d 62 7b 09 3d 42 c7 c5 3d 2b 84 a5 3d
       0.073591255 0.033564933 0.09657146 0.0808185
000240 cd 70 c0 3d bc d9 20 3e 1c 07 c0 3d 32 a2 88 3d
       0.09396515 0.15708059 0.09376356 0.06671561
000250 a4 0d 26 3d e2 d0 22 3e d0 31 dc 3d 9d 4b 6e 3c
       0.040540352 0.15899995 0.107516885 0.014544395
000260 8d 7b 1f 3e 77 72 84 be 9c 13 3f be 2c 75 80 be
       0.15574475 -0.2586858 -0.18659824 -0.25089395
000270 03 d3 26 be 55 7a 2b bd 07 50 de bd 23 73 1f be
       -0.16291432 -0.04186471 -0.10855108 -0.15571265
000280 82 74 d2 3b 6f 2d f9 bd cf 99 8d bc 99 ca 06 3c
       0.00642258 -0.12166869 -0.017285256 0.008227014
000290 10 6c de bc 62 ae 6f bd 06 9c 02 bc 67 82 50 3c
       -0.027151138 -0.058515914 -0.007971769 0.012726403
0002a0 16 55 c2 3d 63 d9 12 bd 34 55 42 bd 31 0a 24 3e
       0.09488885 -0.035851847 -0.047444537 0.16019513
0002b0 91 b7 18 bd b2 83 f3 3d 8e ce 4e 3e 3d 52 86 3d
       -0.037284438 0.11890353 0.20195982 0.065586545
0002c0 02 2d e7 3c ba 94 ac 3d 8c d7 ab bc cf 18 a0 bd
       0.028219704 0.08426805 -0.020976804 -0.07817232
0002d0 20 95 8c 3d 86 c3 87 3d 5e fa 9f 3d 1d f6 c7 3d
       0.06864381 0.0662909 0.078114256 0.09763739
0002e0 b3 84 e6 3d 34 d5 c0 bd 0f f2 c3 3d 69 df e2 3d
       0.11255779 -0.09415665 0.095676534 0.11077768
0002f0 50 ae 27 bb 98 30 c5 bd 18 38 03 be 57 18 4d 3d
       -0.0025586076 -0.09628409 -0.12814367 0.05007204
000300 27 69 a2 3d 05 33 0c be 40 37 e8 bd 85 eb 9e ba
       0.079302125 -0.13691337 -0.11338663 -0.0012124634
000310 82 a7 85 3d e2 5c ad bc 95 03 e8 bd de d1 02 be
       0.0652609 -0.021162454 -0.11328808 -0.1277537
000320 fb 89 a2 bd dd 6a 34 be 8f 62 24 be b7 1c 55 be
       -0.07936474 -0.1761889 -0.16053222 -0.20811735
000330 2c 7b 10 bd e8 9e 24 be e4 b6 b1 bc 71 cf d3 bd
       -0.035273716 -0.16076243 -0.021693654 -0.10342301
000340 d4 cf 9c 3d 5a 1f 3b bd 4e 3c bb bc b6 f1 fe bd
       0.076568276 -0.045684196 -0.022855904 -0.124484465
000350 4c 43 d6 bd 0a 30 b5 3d ce 24 d0 bc 1d 57 77 3d
       -0.104620546 0.08847053 -0.025408175 0.060385812
000360 3f 3a a7 3d 26 2f a2 3c ea 2c eb 3c f2 62 02 3e
       0.081654064 0.019797873 0.02870794 0.12733057
000370 be 3d 70 3d 2d 4e 9d bd 09 c1 a5 3d b1 7c f3 3d
       0.058652632 -0.076809265 0.08093459 0.118890174
000380 e4 ba e2 3d 21 e0 aa 3c ae bf 5f 3d 7e 89 cc 3d
       0.11070803 0.020858826 0.05462616 0.09987162
000390 01 ce ad 3c 8d ca 1e 3d e5 0a a3 3d 44 76 31 3e
       0.021216394 0.038767386 0.07961062 0.17330271
0003a0 fd c9 2d bc c7 4c ea 3d 6f 68 7e be 82 17 67 be
       -0.01060724 0.11440425 -0.24844526 -0.22567561
0003b0 cb 6e 1e be 1b 35 0d be 1a 6e 7f be 65 69 7d bd
       -0.15471952 -0.1378979 -0.24944344 -0.06186809
0003c0 15 da 84 bc 1e 18 44 be 5d bd 85 bd 11 ea d6 3d
       -0.01621727 -0.19149825 -0.06530259 0.104938634
0003d0 bd 4f 66 3c 13 14 86 bc 9d 63 2d 3d 79 45 84 3d
       0.014057097 -0.016366994 0.042331327 0.06458563
0003e0 bc d8 57 bd a5 7d ce 3d be 06 e3 bd ee f5 04 bc
       -0.05269693 0.100825585 -0.1108527 -0.008115275
0003f0 68 a4 2b 3e 8d 6a 2d 3e c4 ab 6d 3d d6 20 be 3d
       0.16761935 0.16935177 0.058025137 0.09283607

layer3.bias f4 [11]
000000 86 54 f5 bd 16 65 87 3d a5 02 d9 3d 50 e6 47 bd
       -0.11979012 0.066110775 0.105962075 -0.048803627
000010 2c 81 db bd 14 4f 5f bd ea 16 c8 bd f8 54 7e 3d
       -0.10717997 -0.054518774 -0.097699955 0.06209275
000020 02 87 d8 3d 6f 30 96 bd 03 bf e1 3b
       0.10572626 -0.07333457 0.0068892254

layer4.weight f4 [8, 11, 3, 3]
000000 a5 02 43 be 7e e1 42 be 0e 4c 6f be d3 2a cb bd
       -0.19043978 -0.19031331 -0.23368856 -0.099202774
000010 a3 4d 16 be 9b 3f 1a be d7 e3 1d 3e 34 85 a0 3d
       -0.14678054 -0.15063326 0.15418945 0.078379065
000020 4a e2 5d 3d e5 1b 0c 3e 5b 13 18 3e 5f 56 70 3d
       0.054170884 0.13682516 0.14851134 0.05867612
000030 06 29 a3 3d 95 b0 7a bb d6 76 be b9 b3 22 82 bc
       0.07966809 -0.0038252224 -0.00036328164 -0.015885687
000040 2f 1e 60 3d b3 14 8e bd 0b 9d 47 3d aa 11 d5 3d
       0.054716285 -0.06937542 0.048733752 0.1040376
000050 50 ac 9a bd a2 f8 a8 ba 59 11 94 bc f7 c3 28 3c
       -0.07552397 -0.0012891481 -0.018074678 0.010300628
000060 82 a5 80 3d 85 b0 28 bd d7 19 bb 3c 8f cc 6e bd
       0.06281568 -0.041183967 0.02283947 -0.05830055
000070 ef 2c f2 3c 5b b9 c9 3c cb 72 66 bd 0f 33 a8 3d
       0.029562442 0.024624517 -0.05626182 0.08212864
000080 1b e2 7a 3d f7 a1 2a 3d f2 e9 b5 bd 15 31 07 be
       0.061250787 0.041658368 -0.08882512 -0.13202317
000090 aa 09 9a bd 1c a6 a2 3c 1c c9 83 3b fa 65 ab 3d
       -0.075213745 0.019854598 0.004021777 0.0836906
0000a0 95 c3 32 bd fb 0f e0 bc 2b b9 0c ba 18 36 dd bd
       -0.043643553 -0.02735137 -0.00053681683 -0.10801333
0000b0 be 4e 8b bd 5c bf 10 3e 05 8c c5 3d 9e 23 07 3c
       -0.06802128 0.14135498 0.09645847 0.008248238
0000c0 f7 b3 c4 3c 68 8e 32 3d 4e d2 6e bc d0 75 92 3d
       0.024011595 0.04359284 -0.014576508 0.07151377
0000d0 f2 18 18 3d 67 80 8e bd eb 92 3b bd 06 fc a9 3d
       0.037133165 -0.069580846 -0.04579441 0.08300023
0000e0 00 30 3c bd ec 15 a6 3b e7 d8 7f 3c 93 a2 5d 3d
       -0.045944214 0.0050685313 0.015615678 0.05411012
0000f0 48 66 85 bd 19 ca ca bd 63 37 96 bd 09 ea e2 bc
       -0.06513649 -0.09901828 -0.07334783 -0.027699487
000100 42 d7 ee 3c e1 5a 89 bd 37 6f c5 3d a9 22 81 3d
       0.029155377 -0.06706787 0.09640353 0.06305439
000110 65 89 77 3a 1e 2b 32 3d 90 0e 2f 3d e4 69 84 bd
       0.00094427756 0.04349815 0.042738497 -0.064655095
000120 b9 52 c6 3d 58 04 34 bd b1 1c c9 bd c0 6e d0 bc
       0.09683747 -0.043949455 -0.098199256 -0.025443435
000130 ee 24 4b bd 0a ff 47 bb 91 17 be bd c3 fc b0 bd
       -0.049595766 -0.0030517005 -0.09281839 -0.086419605
000140 5d c9 4d bc c9 48 0d bc 18 fd 6f bd c2 e5 e1 3c
       -0.012560216 -0.00862331 -0.05859098 0.027575377
000150 7e bf bf bc 82 04 8a bd 01 8b d9 39 f5 79 86 3d
       -0.02340674 -0.06739141 0.0004149303 0.0656623
000160 a6 dc d8 3d b9 7f 1f bd c3 6a d2 3c 46 31 f5 3d
       0.1058896 -0.038940165 0.025685674 0.11972289
000170 0b 7c fe bc 50 63 ce 3c ba 3e d7 3d 74 6c 56 bb
       -0.031065008 0.02519384 0.10510011 -0.0032718452
000180 47 51 9e 3c 3d 99 31 bb 9f ea 99 3d 67 73 21 bc
       0.019325865 -0.0027099394 0.075154535 -0.009854174
000190 fe 1c 82 bd 4b 03 8e bd fa 55 da 3c 83 6b 30 bc
       -0.06353186 -0.06934222 0.026652325 -0.01076782
0001a0 e9 d7 26 3c cc 10 8a 3d a4 88 c7 bc 51 e6 a0 3c
       0.010183313 0.06741485 -0.024357148 0.019641073
0001b0 1e 07 a3 3d bd 11 8d bd 31 3b ba 3d 36 23 9e bc
       0.07960342 -0.06888149 0.09093321 -0.0193039
0001c0 a0 8a c9 3d 15 58 ce bd fd ae 82 3d 1a 58 5a 3d
       0.09840894 -0.10075394 0.063810326 0.053306676
0001d0 43 aa 2a bd 82 1a bc 3d a8 4a 99 bd cc a4 19 3d
       -0.04166628 0.091847435 -0.07484943 0.03751068
0001e0 73 67 56 bd 66 94 8d bd e5 bd 27 bd 1e 60 24 bd
       -0.05234475 -0.069130704 -0.040952582 -0.040130727
0001f0 6b 21 4b bd 99 54 ad bd dd a7 1f bd bc 67 97 3c
       -0.049592417 -0.08463401 -0.038978446 0.018482082
000200 62 79 33 3c dc 7e 94 3d e0 a8 0d bc c1 70 e8 bd
       0.010954233 0.07250759 -0.00864622 -0.11349631
000210 ce e5 3c bd 20 12 af 3d 13 7b ab 3c 9e 6a 6d bd
       -0.046117596 0.08548379 0.02093271 -0.057963006
000220 97 d4 9d 3d 68 5c 94 bd 61 e2 ad bd 94 8e 7e bc
       0.07706564 -0.072441876 -0.08490444 -0.015536923
000230 2a cd 8b 3d 49 c0 7a bc dd 14 44 3d 02 d3 a0 bc
       0.06826241 -0.015304633 0.04787146 -0.019631866
000240 e6 fb e4 bd 7c 9b 3f bc d9 bd 5d 3d da f0 af 3d
       -0.11180858 -0.011694785 0.05413613 0.08590861
000250 5a 77 90 3d d0 0c 98 bd 64 52 10 bd 83 f9 8d 3d
       0.070540145 -0.07424319 -0.035234824 0.06932356
000260 4e 5f 1c 3d 13 d7 dd bd 82 02 60 bd 19 ff 97 3d
       0.038176827 -0.10832038 -0.05468989 0.07421703
000270 cf 8a c8 bc 70 d1 5b bd 53 90 96 bd 3b 6d 99 3c
       -0.024480252 -0.053666532 -0.073517464 0.018728843
000280 8c bb 23 bd c1 1f c3 bd b5 ed b3 bd 77 50 99 3d
       -0.03997378 -0.09527541 -0.087855734 0.074860506
000290 d2 38 a8 bd 6c 42 14 bc 96 83 23 bc b6 79 dd bb
       -0.082139626 -0.009049039 -0.009980103 -0.006758894
0002a0 d2 64 9e 3d 89 90 42 3d 81 3a 9f 3c e6 03 b3 bc
       0.07734074 0.04750112 0.019437077 -0.021852445
0002b0 fc 7b 06 bd e3 9e 81 bd e9 6a 08 3d 10 4f 17 bd
       -0.032833084 -0.06329133 0.033305082 -0.036940634
0002c0 b1 23 af bc 66 88 4c bd 9f 0d af bd 9b 32 b8 3c
       -0.021379324 -0.049934767 -0.0854752 0.022485068
0002d0 39 08 3d bd a0 05 e7 bc b2 48 23 3d 71 7d 7e 3d
       -0.04615042 -0.028200924 0.03986425 0.06213135
0002e0 b9 47 a0 bd ca 88 8c bd a5 a0 e4 bd ee ec 97 3c
       -0.0782618 -0.06862028 -0.11163453 0.018545594
0002f0 8a 46 d8 3d 5a 75 b6 3d 0a 72 35 bd 06 52 bb bd
       0.10560329 0.08909102 -0.04429821 -0.09146504
000300 d7 d4 b1 3d ca fd 85 bd b1 dd 11 3d 05 00 f0 bc
       0.08683174 -0.06542547 0.035611812 -0.029296884
000310 42 3d be 3d 81 24 7a bd 6e 7e b1 3c de 15 fc bd
       0.09289028 -0.06106997 0.021666732 -0.12308858
000320 64 74 9a bd ac 9d e6 3d c4 d9 c9 3d 0d 44 c1 3c
       -0.07541731 0.11260542 0.098559886 0.02359202
000330 11 04 61 bd 11 f6 42 be d4 27 06 bd 27 ea 5a bd
       -0.05493552 -0.1903918 -0.032752827 -0.05344596
000340 f3 71 47 bd f5 c3 d0 bd 9f c9 4a bd ca b3 47 bd
       -0.048692655 -0.10193626 -0.049508687 -0.048755445
000350 59 51 e3 bd cf 3e 97 3c 9c e4 8c bd 83 01 20 3d
       -0.110995 0.018462567 -0.06879541 0.03906394
000360 3b c5 91 bd fa 53 ee bd e9 a4 ae bd 7f f3 d9 3d
       -0.07117697 -0.11637111 -0.08527548 0.10642146
000370 7f 87 52 3c d8 1f 30 3b b8 66 6b bd 55 c3 c2 3d
       0.012849688 0.002687445 -0.057471007 0.09509913
000380 54 29 9b bc 77 0e 1a bd 8d dd 28 be 35 d0 2e be
       -0.018940605 -0.03761145 -0.16490765 -0.17071612
000390 73 c4 bd 3d fa ac b1 bd 1c 4c 22 3d 4b bd 17 bd
       0.09265985 -0.08675571 0.039623365 -0.03704576
0003a0 30 45 e8 3d 05 e3 55 bc 97 fa d6 bd 1c 30 b0 bd
       0.113413215 -0.013054614 -0.10497015 -0.08602926
0003b0 f0 e1 ba bc 2b 95 04 3d d8 88 4b 3d e4 18 81 bd
       -0.022812814 0.03236882 0.04969105 -0.06303576
0003c0 25 83 93 bc 7d 2b f0 3c c5 a4 e9 3c a7 e8 8d 3d
       -0.01800687 0.029317612 0.028520951 0.069291405
0003d0 4f d3 09 3d 71 2f 9d bd 00 76 44 bd b5 f2 d0 3c
       0.033648785 -0.07675064 -0.047964096 0.025506357
0003e0 21 f0 b4 bd 83 07 42 bd dd 18 a8 bd 09 da eb bc
       -0.088348635 -0.047370445 -0.08207867 -0.02879049
0003f0 78 42 66 bd 03 39 18 be fa 62 ef bd 63 aa 54 bd
       -0.056215733 -0.14865498 -0.116888 -0.051920306

layer4.bias f4 [8]
000000 de 21 85 3d cf 8e eb bd b3 d1 70 bd 3c 15 da 3d
       0.065006 -0.11501848 -0.058793735 0.106485814
000010 fa 67 9c 3d f3 13 7e bd fe 58 18 3d cd 36 bc 3d
       0.076370195 -0.062030744 0.037194245 0.0919014

layer5.weight f4 [11, 8, 3, 3]
000000 97 f0 fb bc 8e 1a da bd 54 69 97 3d 50 5c 6b bd
       -0.03075437 -0.10649596 0.073931366 -0.057461083
000010 05 75 ff bd 96 8c a0 bd 89 d8 a0 bb a4 91 60 bc
       -0.124734916 -0.07839315 -0.0049086255 -0.013706598
000020 ed 9a bf bd 09 70 49 bd a9 ab 9c ba a1 80 60 3d
       -0.093557216 -0.04917911 -0.0011953014 0.05481017
000030 94 dc 0c bd c6 ad 8c bd 1f 4d 9a bd 43 55 4f 3d
       -0.034390047 -0.06869082 -0.07534241 0.05061842
000040 47 31 ac 3d ec 97 da 3c 00 a1 6c 3d 42 29 ba 3d
       0.084078364 0.02668377 0.05777073 0.090899006
000050 f8 9f d9 bd bf 1e 2b bd 57 7d 8a bc e6 16 7c 3d
       -0.10626215 -0.04177737 -0.01690547 0.061545275
000060 48 6f d1 3d fa 05 99 3d b2 d1 c1 3c 69 c2 3e bd
       0.10226303 0.07471843 0.02365956 -0.046572123
000070 a3 eb d0 bc ff 34 89 bd 1b 5e ca bd 09 9a ad bd
       -0.025502985 -0.06699561 -0.098812304 -0.084766455
000080 54 5a 7c bd cf 72 00 3d b0 cb 84 3d 3a 84 48 bd
       -0.06160958 0.03135949 0.06484163 -0.048954226
000090 28 4e d9 3d e5 6d a9 3c 85 4b 07 bd 57 af e9 3d
       0.1061061 0.020682285 -0.033031005 0.114103965
0000a0 d0 04 f2 bd 9c a2 15 3d 48 a2 d1 bd 7d fb 9b 3c
       -0.11817324 0.03653203 -0.10236031 0.019040817
0000b0 80 5e fb 3d 0f 33 f0 3c 90 0a 9c bd 5c fd 94 bc
       0.12273884 0.029321222 -0.07619202 -0.018187217
0000c0 05 4b bb 3b 9a e3 a9 bc 05 be 25 3e ef 24 03 3c
       0.00571573 -0.020738412 0.16185768 0.008004411
0000d0 a1 5b c3 3d fb 38 ca bb a3 b6 2c 3d f0 c9 c5 bc
       0.09538961 -0.0061713434 0.042166363 -0.024144143
0000e0 d4 7d 9f 3d 14 8c a9 bd cb 1d 09 be 59 11 ca bd
       0.07787672 -0.08278671 -0.13390271 -0.0986659
0000f0 1a b9 6a 3d 27 73 97 3d f1 d0 53 3d e2 e9 1d 3d
       0.057305433 0.073950104 0.051712934 0.038553126
000100 d3 1c d8 3c df 89 f8 3d 84 81 84 3d 2f 8d e0 bd
       0.026380932 0.12135672 0.06470016 -0.10964429
000110 d6 5c b4 bd f3 90 ec bc 11 65 22 bd 8c b3 df bd
       -0.088067695 -0.02887771 -0.039647166 -0.10922918
000120 d6 1f cc bc 66 29 36 bd cf f2 4d bc a1 40 0b 3e
       -0.024917524 -0.044473074 -0.012570097 0.13598873
000130 78 5d e6 3d 32 01 e2 b8 84 9d 35 3e f8 17 2b 3e
       0.112482965 -0.000107767424 0.17735869 0.16708362
000140 84 e0 9e 3c 74 03 4e bc 4b 52 be 3b e9 79 e8 3d
       0.019394167 -0.0125740655 0.00580815 0.113513775
000150 db ed 01 3e b5 bb a1 bd 9f f5 ad 3c 46 c0 df 3d
       0.12688391 -0.078971304 0.021235285 0.10925345
000160 dd 5b 05 bd a4 d2 c7 bc ac d2 ed 3d 3d dc 42 3d
       -0.03255831 -0.024392433 0.11612448 0.047573317
000170 4f 90 39 3e b8 2c 3f bd 13 0e b7 bc c2 18 8f 3d
       0.18121456 -0.046673506 -0.022345578 0.06987144
000180 f8 e3 dc bd 60 c3 28 3c 16 0e ed 3d 38 05 13 bd
       -0.10785669 0.010300487 0.11574952 -0.03589365
000190 a1 26 63 bd 05 15 3e 3c 54 24 9c 3d 49 16 d3 bd
       -0.05545676 0.011601691 0.076241165 -0.10306985
0001a0 f2 da f1 bd 32 1d 92 3d c8 e4 91 3d d3 e8 a7 bd
       -0.11809339 0.07134475 0.07123715 -0.081987046
0001b0 7a d5 32 3e a6 d4 8b 3d e1 a5 ca 3d 4b 82 a1 3d
       0.17464247 0.06827669 0.0989492 0.078861795
0001c0 aa 40 73 3d 8f a4 8e 3d 63 13 4f 3d 2e d3 15 3e
       0.05938784 0.06964981 0.050555598 0.1463134
0001d0 75 d6 e6 3d 1b c6 90 bd 67 8c e8 bd 66 87 18 be
       0.11271373 -0.070690356 -0.113549046 -0.148954
0001e0 1a 6b ab 3c 46 dd 6b 3c b5 67 0b bd cf 77 af bd
       0.020925093 0.014396017 -0.03403445 -0.085677736
0001f0 3d aa 1b ba 19 15 22 bd 6c 9e 3b 3c bb d3 85 bd
       -0.0005938148 -0.0395709 0.011451345 -0.06534525
000200 9d 04 9f 3d 5a df 8d bd 9e 92 3a 3c ec ef 7b 3d
       0.07764552 -0.069273666 0.011387495 0.061508104
000210 0a 4b 8d bd 16 65 a0 3c c7 6c 89 bc 8a f8 03 3d
       -0.06899078 0.019579452 -0.016775502 0.032219447
000220 66 0c aa bd f5 9e 88 bd 13 d7 5b bd c7 48 b3 3d
       -0.08303146 -0.06670944 -0.053671908 0.087541156
000230 a0 2d 9d bd 06 dc ed bc be 06 f0 b8 f9 25 87 bb
       -0.07674718 -0.02903558 -0.000114453476 -0.0041243997
000240 8b 32 09 3e 0d b2 c1 3d 2c fd b4 bd a0 b3 eb 3d
       0.13398187 0.094577886 -0.08837351 0.1150887
000250 da ff 94 3c 56 9e 3d 3d 4b 21 d4 3d 6c 4d e8 bc
       0.018188406 0.04629358 0.10357913 -0.02835723
000260 ab 95 8f 3d d5 c1 e2 3c 93 a6 40 3d 57 f1 1e 39
       0.07010969 0.027680317 0.047033858 0.0001515796
000270 60 ac 94 3d 74 72 b8 3d 7d db 59 3d 2d d6 37 bd
       0.072594404 0.09006205 0.053187836 -0.04488199
000280 c1 d8 be 3d b4 4e 94 bd 9b d7 bf 3d ff a9 07 bc
       0.09318686 -0.07241574 0.09367295 -0.008280276
000290 df 9e 2c 3e 01 f3 96 3d f6 a9 7d 3d dc 9e d9 3d
       0.1685748 0.07370568 0.061929666 0.10626003
0002a0 33 9f b6 bc d8 0b 9f 3d 43 a2 cd bd 28 5c fd 3d
       -0.022292709 0.07765931 -0.100407146 0.12371093
0002b0 36 97 22 3d cb bb 7b 3d ae e0 a4 3d 07 1c 44 bd
       0.039694987 0.06145839 0.08050667 -0.04787829
0002c0 77 86 e1 bd 37 6b c8 3c e1 b4 f0 bd 63 d0 11 bd
       -0.11011975 0.024465187 -0.1175325 -0.035599124
0002d0 5f 9b 21 bd 92 8c 21 bc 8c ad 33 3d 8f 2c 51 bd
       -0.039454814 -0.009860175 0.04386668 -0.051067885
0002e0 30 50 0b 3e ec 1b 00 3e aa 74 32 3d 70 01 23 3e
       0.13604808 0.12510651 0.04356829 0.15918517
0002f0 db c5 a0 3d 7f d5 0b be bf 41 88 bd 7c ec 4b be
       0.07850238 -0.13655661 -0.06653165 -0.1991443
000300 43 95 04 be d4 fd 3f be 7e d6 4f be 02 71 68 bd
       -0.12947564 -0.18749171 -0.20296666 -0.056748398
000310 88 ce 9f bd 55 55 c5 bd 07 5a 71 bd 8a 77 2c bc
       -0.078030646 -0.096354164 -0.058923747 -0.010526547
000320 20 62 26 3c 56 1d 98 bd c1 09 09 be ea 71 4d bd
       0.010155231 -0.074274704 -0.13382627 -0.050157465
000330 9f f4 bc bd 9e 2e 8e 3d 28 16 02 be 78 9b 62 3d
       -0.09226345 0.06942485 -0.12703764 0.055324048
000340 4a dd 96 3d fa 0b c1 3c e8 3b 97 3d 02 c1 9c bd
       0.07366426 0.023565281 0.07384473 -0.07654001
000350 e2 c2 26 3c 3d e3 14 bd 22 e5 9c 3d e2 f5 30 3d
       0.0101783 -0.036349524 0.07660891 0.043203242
000360 75 5c 4e 3d 21 1c 08 3c 48 7f d4 3c e0 f6 05 3c
       0.050381143 0.008307488 0.025939599 0.008176535
000370 13 63 39 bd 1c 08 db 3d 97 13 58 bc c9 3a 92 bd
       -0.0452605 0.10694906 -0.013188264 -0.07140119
000380 e6 d2 ac bd f7 d0 e1 3d 7f c5 d1 bc 86 24 d1 bc
       -0.08438663 0.11026185 -0.025606869 -0.025530111
000390 64 90 d9 3c 84 10 ec bc 04 79 31 3d 31 94 11 3e
       0.026558109 -0.028816469 0.0433283 0.14216687
0003a0 04 9f 9d bd de c8 a1 bd 92 09 41 3d f5 fe 22 bd
       -0.076963454 -0.078996405 0.047128268 -0.039793927
0003b0 87 ea 04 bb d5 19 b4 3d 9e eb 05 3e 73 50 2c 3e
       -0.002028139 0.087939896 0.13078162 0.16827564
0003c0 2d 91 31 bd 56 b6 0b bd 87 3e c3 3d c7 fa f8 bd
       -0.04335134 -0.034109436 0.095334105 -0.12157207
0003d0 b8 08 22 3d 64 e3 15 be e3 a0 c9 3c 94 cf 3e 3d
       0.039559096 -0.14637524 0.02461285 0.04658468
0003e0 8e 45 b3 bb 0b 9f 48 3d ef 16 6a bd fd 34 06 be
       -0.005470938 0.0489798 -0.057150777 -0.13106151
0003f0 ca 2f bd bd 30 c0 b1 bd f6 1e a7 3b 13 c1 af bb
       -0.09237631 -0.08679235 0.0051001264 -0.0053635924

layer5.bias f4 [11]
000000 17 19 02 be d0 7b 23 3d b2 c4 64 3d 1f 38 ac 3d
       -0.12704884 0.039913 0.055851646 0.08409142
000010 29 a7 07 be 09 88 7c bc 5d 8a cf 3c 2f 61 1e bb
       -0.1324736 -0.015413293 0.025334531 -0.0024166813
000020 d2 b5 e9 3d 61 8a d5 3b 9e e8 97 bd
       0.114116326 0.00651674 -0.07417415

layer6.weight f4 [7, 11, 3, 3]
000000 94 d0 76 3c 7a 15 de 3d d0 6c ce bc 32 f1 48 3a
       0.015064377 0.1084394 -0.02519837 0.00076653354
000010 4d 05 89 3d d7 88 9b 3d eb 38 cb 3d 00 7d ba 3d
       0.06690464 0.075944595 0.099229656 0.09105873
000020 b8 51 61 bc f6 a4 f2 bd 93 c1 0a bd b0 63 c1 bd
       -0.013752393 -0.1184787 -0.033876013 -0.09442842
000030 f8 e8 9c 3a fe f6 93 bd 23 00 bd bd d6 2a aa 3c
       0.0011971286 -0.072248444 -0.09228542 0.020772379
000040 24 4e f4 bc 77 7a ef bd c1 0b ab 3b d8 cf 4d bc
       -0.029822417 -0.1169328 0.005219907 -0.012561761
000050 24 63 2c bd 35 73 73 3d 2f 81 25 bd bd 7d 76 3c
       -0.042086735 0.05943604 -0.040406402 0.015044627
000060 dd 2c f3 3b 9f d3 41 3c b6 df 99 3c 96 7c 82 bd
       0.0074211196 0.01183024 0.018783432 -0.06371419
000070 48 28 b8 bd 8b a6 0f bc e5 ae 21 3d 5e 9c aa bd
       -0.08992058 -0.008767734 0.039473433 -0.08330606
000080 04 83 ef bd 56 cb f5 3b a0 cb 90 b9 0a f7 ed bd
       -0.11694911 0.007501046 -0.00027617533 -0.116193846
000090 b2 a9 4a bc bb 8d 0e be 1e 68 06 be 1b 70 2c 3d
       -0.01236956 -0.13921253 -0.13125655 0.0420991
0000a0 4d 48 96 bd 2e f4 04 bd 2d d1 a8 3c bb 96 53 3d
       -0.07338009 -0.03245943 0.020607555 0.05165742
0000b0 3d a5 d5 bd 11 cb 4d bd 60 f8 de bc 6b 75 30 bd
       -0.10431907 -0.050242487 -0.027218044 -0.04308073
0000c0 74 5f 8b 3d 2b ee 39 bd 71 b1 88 bc 7a 0e 11 3e
       0.068053156 -0.04539315 -0.016686173 0.14165679
0000d0 fa 96 3f 3d 4e a4 be bd 68 8b 7d bd 11 14 3a bd
       0.04677484 -0.093086824 -0.061900526 -0.045429293
0000e0 26 98 0b be 2d 1a 5b bc 0f 61 02 be 0c 28 73 bd
       -0.13632259 -0.01337294 -0.12732337 -0.059364364
0000f0 08 98 1b 3d 6d a4 07 3d 4d 74 19 bd 3a 1b 8f 3d
       0.037986785 0.033115793 -0.03746443 0.06987615
000100 d1 5c bc ba bc 83 11 bd db 0a b6 bd 82 78 02 3d
       -0.0014370923 -0.035526022 -0.08888789 0.031853206
000110 bc 55 7f bd 20 a2 85 bc 31 1d ba 3c 27 5a 9b bc
       -0.062337622 -0.016312659 0.022718998 -0.018963886
000120 aa dd 88 3c 48 e4 26 3d 30 51 b8 bc 17 1b 48 3c
       0.01670726 0.04074505 -0.02249965 0.01221349
000130 6d 91 9a bc eb 2c a5 bd db ae 96 bd a0 d1 6f 3d
       -0.018868173 -0.08065208 -0.0735757 0.058549523
000140 cc e3 5f bd 81 f8 20 3c 9d af 19 3d 4c 5f cd 3c
       -0.054660603 0.009824873 0.037520994 0.025069855
000150 7e c6 29 bb 4c d2 47 bd f7 33 80 3c a0 31 13 3d
       -0.0025905664 -0.04878454 0.015649779 0.035935998
000160 c6 c9 88 3d 43 e9 6c 3d 2a 93 ef bd b1 80 47 bd
       0.0667911 0.057839643 -0.11697991 -0.048706714
000170 33 01 cb bd 41 bc 88 3c a1 fa bb bc 41 69 5c 3d
       -0.09912338 0.016691329 -0.022946658 0.053811315
000180 e4 23 85 3d 69 48 e0 3d db b2 07 bd 6f 52 25 3e
       0.06500986 0.10951311 -0.033129554 0.16144727
000190 01 ed 36 3e b7 9a 94 3d 3a bf 15 3e 65 93 b3 3d
       0.17863847 0.07256072 0.14623728 0.08768348
0001a0 27 4f 3b 3d e6 c2 b7 3c 69 8e 7e 3d 48 af 97 3d
       0.045729782 0.022431802 0.06214753 0.07406479
0001b0 a1 c9 a9 bd 33 46 94 bc 21 74 ad bd 1a 1e 33 3c
       -0.08290411 -0.01809988 -0.084694155 0.01093247
0001c0 53 eb 8a 3d 88 30 ab 3c e4 a3 fb bd 06 a7 8c bd
       0.06783166 0.020897165 -0.12287119 -0.06867795
0001d0 e7 6b 8d 3c 61 b0 66 bd 09 79 71 bd e1 e5 a5 bd
       0.017263366 -0.05632055 -0.05895332 -0.081004865
0001e0 97 87 1f 3d 6d a5 b8 bd 78 a6 ef bb d2 bd 04 3d
       0.038947668 -0.090159275 -0.007313546 0.03240759
0001f0 c3 09 45 3d a3 cb 21 3a da a1 74 3d 5f 53 16 bd
       0.048105013 0.0006172007 0.059724666 -0.036700603
000200 7c f1 61 bd 2c b4 6c bd 6e 6c 2b 3d dd 85 d1 3d
       -0.055161938 -0.057789013 0.041851453 0.102306105
000210 06 5a a6 bd cb 25 a2 bc 8f 05 a1 bd d9 73 47 bd
       -0.08122639 -0.019793412 -0.07862388 -0.048694465
000220 9c 00 9a 3d 0a 3e 97 3d 21 d2 2a 3d c6 5f 8f 3d
       0.075196475 0.0738488 0.0417043 0.07000689
000230 66 83 8e 3d aa 18 81 3d ea c1 a4 3d 2b 1c 0b 3d
       0.06958656 0.063035324 0.08044799 0.03396241
000240 bf 2c d1 bd 3f 09 3a be 19 2a 0f bb bf 92 43 bd
       -0.10213613 -0.1816759 -0.002184516 -0.04774737
000250 ac 86 25 be d0 0e cc bd 39 60 59 be cd cf c5 bc
       -0.16164654 -0.09963763 -0.21228112 -0.024146939
000260 1a 57 df bd d7 ff 9b 3c d9 21 b2 3b 9e af a1 bd
       -0.10905285 0.019042892 0.005436164 -0.078948244
000270 de c1 11 3b 7e 04 07 3e d8 ff 3a bd 80 cf 8a 3d
       0.0022240798 0.13185307 -0.045654148 0.06777859
000280 c5 f1 56 3d 9b 91 7e bc 94 7e 67 bc 36 54 2c bd
       0.052476663 -0.015537645 -0.0141293 -0.042072497
000290 00 2b a2 3d 0f a5 ef bc 2b dc bb ba 6b 3e b8 bd
       0.07918358 -0.02925351 -0.0014332583 -0.0899628
0002a0 d6 97 b8 bd 95 9e 8e 3c 0c a3 8d bd 02 ad cf bd
       -0.090133354 0.017409602 -0.06915864 -0.101404205
0002b0 b9 35 ef ba 14 b0 0d 3c 3f 51 a4 3b 7f 86 2d 3c
       -0.0018250264 0.008647937 0.005014568 0.010591148
0002c0 6d f6 09 bd 2d ee 76 bd 99 4e bd 3c 6b 85 9e 3d
       -0.033682276 -0.060285736 0.023108767 0.07740291
0002d0 ad 78 2a 3d 52 19 bc bd e5 7e bf bc 53 9b a8 bc
       0.04161899 -0.09184517 -0.023375938 -0.020581877
0002e0 eb 5f de bd 63 05 26 bd cf c9 11 be 2e d7 02 be
       -0.10858139 -0.04053248 -0.1423714 -0.12777397
0002f0 15 bf b5 bd 04 29 da bd be 12 7e bd e6 df 90 bd
       -0.08874337 -0.10652354 -0.062029593 -0.07073955
000300 a7 46 a6 bd 5c 98 14 bd 22 7a b7 bc 1e f2 f5 bc
       -0.081189446 -0.036278114 -0.022397105 -0.030022677
000310 84 8e 90 bc af 50 74 bd b1 96 09 3e 04 dc 12 3e
       -0.017646082 -0.05964726 0.1343639 0.14341742
000320 c1 a1 ac 3d e8 67 11 bc 87 36 17 bc f1 5e 5c bd
       0.084292896 -0.008874871 -0.009229309 -0.05380148
000330 9c 70 10 be 0d 5e bb 3c bf 8d 21 be b3 2a 30 bd
       -0.14105457 0.022871995 -0.15776728 -0.04300947
000340 8c 79 5c 3d aa 9f e8 bd 9c 12 a7 bd 8a 00 30 3d
       0.053826854 -0.113585785 -0.08157846 0.042969264
000350 f1 09 28 bd 42 87 0a bd 67 f4 c1 3d 4b 9e 83 3d
       -0.041025106 -0.0338204 0.09470444 0.06426676
000360 49 47 b8 39 35 fa 2b bd 5a ab bf bd e3 78 8b bd
       0.00035148326 -0.041986663 -0.093588546 -0.06810167
000370 43 c9 a2 3d 35 98 85 3d c4 4b 39 bc 4f 46 79 bb
       0.07948544 0.06523172 -0.011309568 -0.0038036292
000380 55 72 ef 3d df cc ba 3d dc ea 02 3c f7 96 1c 3d
       0.11691729 0.09121107 0.007990565 0.03822991
000390 97 2b 87 bd bc 82 d8 3c 48 a7 82 bd b6 69 ec bc
       -0.06600111 0.026429527 -0.063795626 -0.028859
0003a0 c6 6f 32 3d 01 05 98 bc 25 29 5c bd 21 08 47 3d
       0.043563627 -0.018557074 -0.053750176 0.048591737
0003b0 ef d7 df 3a 23 9e a8 3d 90 e9 4f 3d e2 31 82 3b
       0.0017077903 0.08233287 0.050759852 0.0039732317
0003c0 9f 00 2a 3c fc bf 92 3d 6f c5 cf bd 5a da c9 3d
       0.010376125 0.07165524 -0.10145079 0.098561004
0003d0 03 3b f4 bc 6b 0c 02 3d 12 2f 11 3e d3 2e 6b 3a
       -0.029813295 0.031750124 0.14178112 0.0008971516
0003e0 44 d2 c1 3d 7e 92 4a 3d 78 0d 62 3d c0 43 b4 3d
       0.09463933 0.049456112 0.055188626 0.08801985
0003f0 33 c5 bf bc 48 6e ba 3d 5e 55 46 bc c4 77 85 bd
       -0.023409462 0.09103066 -0.012105314 -0.06516984

layer6.bias f4 [7]
000000 40 51 f8 bd 84 11 85 bd 88 b9 5e 3d 9b 11 8f 3d
       -0.12124872 -0.064974815 0.054376155 0.0698578
000010 1c 49 69 3d 40 f1 13 bd bc 4c 5e bd
       0.05695449 -0.036118746 -0.0542724

layer7.weight f4 [11, 7, 3, 3]
000000 90 c1 16 3e 68 c9 b0 3d a5 5e 71 3d b5 d6 f8 3d
       0.14722276 0.08632165 0.05892815 0.12150327
000010 4c d3 eb 3d c1 d1 9a 3d 60 b1 a2 3d ae 00 fd 3c
       0.11514911 0.07559539 0.07943988 0.030884113
000020 a1 23 c7 bc e9 16 42 3d 4e 95 f9 3d ed ce 7a 3d
       -0.024308981 0.04738513 0.12186681 0.061232496
000030 8f a5 19 bc a3 08 b2 3b 1b ea f7 3d ad 7b ed 3d
       -0.009377851 0.0054331585 0.12105199 0.11595855
000040 1d 73 3c 3d 0b 42 0f bc 3b ba b5 3d ad 51 f3 bd
       0.046008218 -0.008743773 0.08873411 -0.11880813
000050 00 af e7 3c c4 0e 10 be d7 c1 82 bd 08 26 57 3d
       0.028281689 -0.14068133 -0.06384628 0.052526504
000060 de 72 0b 3e c0 f0 d5 3d 24 94 b6 bb 73 00 74 3d
       0.13618037 0.1044631 -0.005571859 0.05957074
000070 33 c2 de bd 40 31 3d bd a8 a9 cb 3d 61 6e 06 be
       -0.10876884 -0.046189547 0.09944469 -0.13128044
000080 22 9a 3b bd 7d ae d2 3d ee 2f 0d be f4 19 1b 3d
       -0.04580129 0.10287187 -0.13787815 0.037866548
000090 95 8b 91 bd bc b8 c8 3c ef 7c a1 bd 5c 49 f0 3d
       -0.07106701 0.02450215 -0.07885157 0.11732742
0000a0 82 74 f6 bd 13 95 73 bc d5 e1 c4 bc 7d 56 f0 bd
       -0.12033941 -0.014867085 -0.024033466 -0.11735246
0000b0 ee 60 97 3d 39 6e 21 3e 83 78 1d 3e 0e 44 da 3c
       0.07391535 0.15764703 0.15378003 0.02664378
0000c0 31 a4 df 3d bd 96 b7 3d f2 cb 5e 3d 26 22 28 3e
       0.10919989 0.08964298 0.054393716 0.16419277
0000d0 a8 a8 a7 3d cb 62 d0 bc 57 fc aa 3d 92 e9 b8 3d
       0.081864655 -0.025437733 0.08348911 0.09028925
0000e0 ba 02 fe 3d 2c 77 d4 3d 98 76 64 3d 99 07 aa bb
       0.12402864 0.10374293 0.055777162 -0.005188894
0000f0 94 00 0d 3d 5f 23 71 bc ae 58 d3 3c 86 2a 65 bd
       0.03442438 -0.014717906 0.025799122 -0.055948757
000100 fd 38 0e 3d ce 04 70 3d 3e e2 a9 bc b0 93 c1 bd
       0.034722317 0.058598332 -0.020737763 -0.09451997
000110 e0 a0 2b 3c 26 19 6b 3c fb 54 c3 3c ba e2 88 bd
       0.010475367 0.014349258 0.023844233 -0.0668387
000120 ff 51 c1 bd 91 29 ed 3d 4b 5e aa 3d e4 c6 c9 3c
       -0.09439468 0.11580194 0.08318766 0.024630971
000130 2e f8 10 bc 04 2e 8b bd 7c f9 32 bd 71 7b f0 bc
       -0.008848233 -0.06795886 -0.043694958 -0.029355736
000140 aa 3e e4 3d 7b c8 14 bd 1e 91 a1 bd fc 94 05 bd
       0.11144765 -0.036324006 -0.07889007 -0.032612786
000150 7d a6 90 bd 6d 48 ed bc ef 10 80 3d 38 d9 37 3d
       -0.07063005 -0.0289652 0.0625323 0.04488489
000160 bb f6 c9 3d 0d 92 7f 3d 66 fa 05 bc 8a 56 40 bc
       0.09861513 0.062395144 -0.008177375 -0.0117393825
000170 a6 f0 8b bc 43 e5 cb bd a4 3b 1d 3d 47 f9 60 bc
       -0.017082524 -0.099558376 0.038386956 -0.013731307
000180 8b 53 bb bb e7 f9 4c bd 92 16 77 3d df 7d 24 bc
       -0.005716746 -0.050043013 0.06032426 -0.010039776
000190 25 64 9b bc d3 b8 ee 3d 0a ca fa bd 5c 40 9b 3d
       -0.018968651 0.11656346 -0.12245567 0.07580635
0001a0 65 7a 92 bd 4e 5e 0a bd 72 38 54 bc 74 2d fb 3d
       -0.07152251 -0.033781342 -0.012952911 0.12264529
0001b0 4e 80 36 3d 2f 3d 68 bd d6 60 4d 3d e4 6b 16 3e
       0.044555955 -0.056698974 0.050141178 0.14689595
0001c0 28 94 09 3e f3 9d 3f 3e e9 35 04 3d eb 9c 16 3e
       0.13435423 0.18712597 0.032277975 0.14708297
0001d0 bb 4c 6c 3e 4f 30 c9 3b 07 7f 44 3d c5 a2 34 bd
       0.23076145 0.006139792 0.047972705 -0.04410054
0001e0 74 e3 c2 3c 59 ad 71 3d 72 fb 57 3d 08 d0 55 3e
       0.023790099 0.059003208 0.05273003 0.20880139
0001f0 0f c1 9b bc 93 7c ec 3d e0 45 cc bb 21 62 cc 3d
       -0.019012956 0.11547198 -0.0062339157 0.09979654
000200 ca 3e a0 3d 96 51 48 bd e3 0a 3d bd 4f 26 18 bc
       0.07824476 -0.04890593 -0.04615296 -0.009286477
000210 98 b2 f3 3d 9a db 84 3b fe ed 26 3d 0d 1f 9d 3c
       0.118992984 0.004054499 0.04075431 0.019179845
000220 64 14 97 bc 1e fa 95 3c a3 7e 43 3d 14 7f 38 bd
       -0.01844234 0.018307742 0.047728192 -0.045043066
000230 c7 29 9a bd 6f 55 c0 bb ab 77 61 3d 38 af 71 bd
       -0.075275 -0.0058695595 0.055045765 -0.059004992
000240 1e e5 0e 3e 47 2a 89 3d 65 84 69 3d ee 60 87 3d
       0.13954589 0.06697517 0.057011027 0.06610285
000250 93 c5 c3 bd 75 93 91 bd f6 e1 95 bd fb 72 ce bd
       -0.09559169 -0.07108203 -0.07318489 -0.100805245
000260 be e0 ce bd c0 72 fd bc b4 6b 66 3d c7 64 30 3d
       -0.1010146 -0.030938506 0.056255057 0.04306486
000270 ce 6f d4 bb 94 ec 2d 3d 86 0f 8d 3c b6 c5 f5 3d
       -0.0064830547 0.042461947 0.017219316 0.12000601
000280 98 fb c6 3c 5d 80 9b 3d 11 53 7f 3d 38 a5 33 bd
       0.024289891 0.07592843 0.062335078 -0.043858737
000290 e0 db c2 3b b6 34 5b bd b7 51 64 bc af fe f2 bc
       0.0059466213 -0.053517066 -0.013935498 -0.029662458
0002a0 c0 ff b3 bc 94 5f e1 bd a5 4d ac bc b8 71 99 bc
       -0.021972537 -0.11004558 -0.021033118 -0.018730983
0002b0 a2 c6 6e bd 70 20 a8 bd b1 a6 11 be 23 4e 19 be
       -0.0582949 -0.08209312 -0.14223744 -0.14971213
0002c0 e0 d2 35 be 8b b3 0d bd 68 0f 5f bd 91 05 bc bd
       -0.17756224 -0.034595054 -0.054458052 -0.09180749
0002d0 cf a6 58 bd 70 73 9c bd bf 07 73 3c 9c e2 85 3c
       -0.052893456 -0.076392055 0.01483339 0.016343407
0002e0 e2 f5 8b 3d 08 05 e9 3d d5 61 0e 3e b4 93 9c bd
       0.06834008 0.11377913 0.13904507 -0.0764536
0002f0 13 53 e2 3c 48 f8 19 bc 9f 04 7f bd ec 86 a0 bd
       0.027627503 -0.009397574 -0.062260266 -0.07838234
000300 29 c2 c3 3a f7 0b a1 bd 8a d0 c1 bd 3a 76 25 3a
       0.0014935184 -0.0786361 -0.09463604 0.00063118676
000310 ec 02 6c 3d 51 3a 8f bd c4 fb 76 3d 6c c9 29 bd
       0.057619974 -0.06993545 0.060298696 -0.041451856
000320 92 93 92 3d e5 a1 b4 bc 1b de 8d bd b1 d3 19 bd
       0.07157053 -0.022049854 -0.06927129 -0.0375554
000330 33 81 1a 3d c7 ac c3 3d 9b ec 21 bd 98 27 64 3d
       0.03772087 0.09554439 -0.039532285 0.055701822
000340 2d 12 94 3b b9 6f b4 bd 59 93 50 3b 2c 8a 83 bd
       0.0045187683 -0.08810372 0.0031826107 -0.064228386
000350 2d e3 f9 bd 09 70 f1 bd 9e 1b 97 3d 6d 97 1a bc
       -0.122015335 -0.11788947 0.073783144 -0.009435517
000360 b4 16 11 bd f0 ff 93 bd ae cf 8d bd 1f 0e 68 bc
       -0.035422042 -0.072265506 -0.069243774 -0.014163523
000370 e0 ea ef 3d c7 64 00 be 08 88 53 bd ba c0 b6 bc
       0.11714721 -0.12538444 -0.0516434 -0.022308696
000380 c0 f9 ab bd 4a 54 bb 3d ea de 6a bc f1 56 e7 bd
       -0.083972454 0.09146936 -0.014335373 -0.1129588
000390 e8 ab d8 bd e1 5e e3 3d 3e 58 ed 3d be 15 23 bd
       -0.105796635 0.11102081 0.115890965 -0.039815657
0003a0 26 d2 ce bb c8 3a 98 3d 54 09 ab bc 0e 7d f8 bd
       -0.0063116727 0.07433087 -0.020878471 -0.12133227
0003b0 75 c9 3b 3d a0 b7 ca bd a5 62 ad 3d b3 41 b0 bd
       0.04584642 -0.09898305 0.084660806 -0.08606281
0003c0 a7 d7 6b bd 6a 17 80 3d e0 2f 63 3d 91 a6 26 bd
       -0.05757871 0.06254466 0.05546558 -0.040686194
0003d0 5e 2e d1 bd 54 14 67 3d e8 66 f3 bd 17 22 b5 bd
       -0.10213922 0.05641587 -0.11884862 -0.08844393
0003e0 62 0e 41 bc 8f 60 47 bd 9c c7 da bd b2 de e2 bd
       -0.011783214 -0.04867607 -0.10682604 -0.11077632
0003f0 6b 11 23 bd c8 42 b0 bd e4 8f c3 bc 54 4b 87 bc
       -0.039811533 -0.086064875 -0.023872323 -0.016515411

layer7.bias f4 [11]
000000 85 f0 c8 bd 7e 56 67 bd af 2d 40 3d 72 ec 96 bd
       -0.098115005 -0.05647897 0.046918567 -0.07369317
000010 79 c0 01 3d d0 9c 1f 3d 74 92 3a 3d c2 21 13 bd
       0.031677697 0.038967907 0.045549825 -0.035920866
000020 46 11 15 bd 3d a0 cb 3d 26 3f ee 3c
       -0.036393426 0.099426724 0.029082846
